bc_out/bc_policy_final.pt (torch, 314072 bytes, 6 tensors)

net.0.weight f4 [256, 39]
000000 b0 b4 f0 3d c1 61 e2 3d 9a ca 45 bd ec 00 b0 3c
       0.117532134 0.11053801 -0.04828892 0.021484815
000010 8a 76 1a bd 8d 81 cb 3c 24 13 d4 bd 11 b5 1e 3e
       -0.037710704 0.024842048 -0.10355213 0.15498759
000020 d5 b5 51 3e 24 90 0f be 70 83 3d 3e 38 35 8c 3d
       0.2047952 -0.14019829 0.1850717 0.06846088
000030 a8 0e c7 3d c6 42 81 bb d7 18 b1 3d 8e e8 72 bc
       0.09719592 -0.0039447276 0.08647316 -0.014825953
000040 36 12 4a 3d 7e b5 65 3d a2 7b ad bd b1 51 46 3d
       0.049333774 0.056081288 -0.08470847 0.04841775
000050 b3 b9 86 bd 19 03 43 3c 83 32 89 bd 0d 1d f3 3d
       -0.06578388 0.011902594 -0.066990875 0.11870775
000060 1d 69 db bd ff 36 52 bd cf 35 0a bd a5 de 81 bd
       -0.10713408 -0.05132198 -0.033742722 -0.06341294
000070 26 8e 3f bc 5d cf 1d be 4c 78 02 3e a5 92 25 be
       -0.011691606 -0.15411134 0.12741202 -0.16169222
000080 9f 17 04 3e d8 d5 cc 3b a6 4f 68 bd 62 33 20 3d
       0.12899636 0.006251078 -0.056716584 0.039111502
000090 f9 e2 a0 3d 7d d9 dd 3c 9b 77 87 3d 26 50 9b bd
       0.078557916 0.027081246 0.0661461 -0.075836465
0000a0 e3 6e 9d 3a 58 33 5d bd 00 95 2d 3d 9c 55 6a 3e
       0.0012011196 -0.054004043 0.042378426 0.2288422
0000b0 39 ff 9b 3d b9 29 d9 bd 76 ca a8 3d f1 6b 65 3d
       0.07617039 -0.10603661 0.08241741 0.056011144
0000c0 7a 8e 38 3e 27 7b 0e be 51 8c 30 be 5e a5 b0 bd
       0.180231 -0.13914166 -0.17241026 -0.08625291
0000d0 9f 11 01 be 80 3d ea 3d 66 eb e1 3c 17 65 27 3d
       -0.12604378 0.114375114 0.027578067 0.04086789
0000e0 1d 71 e5 3c 0d 36 ab bd b6 c7 e4 3d a0 04 70 bd
       0.028008038 -0.08359919 0.11170904 -0.05859816
0000f0 88 cf bb 3c 82 48 77 bc 8e f3 6f 3d 57 79 13 3d
       0.022926107 -0.015092971 0.05858188 0.03600439
000100 c9 ac 44 3b 7b c4 d6 bc 48 f3 03 3e 9f 34 eb bd
       0.0030010215 -0.026216736 0.12885773 -0.11484646
000110 c2 66 84 bd 7d 09 bf bc 2f f1 8c 3d 09 a2 ac 3d
       -0.06464912 -0.023319954 0.068819396 0.08429343
000120 70 78 16 3e cf 0b e8 bd ff b6 f0 bd a0 4c d6 bd
       0.14694381 -0.11330377 -0.11753654 -0.10463834
000130 2f 9e ed bd af a7 92 3d ad 9c 67 3d 45 e2 df 3d
       -0.11602437 0.07160889 0.056545902 0.10931829
000140 f0 fd 81 bd 7d 03 d1 bd ed b1 e1 3d 32 c2 ec bd
       -0.06347263 -0.102057435 0.11020265 -0.11560477
000150 b1 82 a8 3d 58 a2 4b bd e7 0b 2c 3e be 39 4f be
       0.082280524 -0.04971537 0.16801415 -0.2023687
000160 17 42 2a be 22 82 d9 3d ff dc 83 bc 5f f3 c0 bd
       -0.16626774 0.10620524 -0.01609659 -0.09421419
000170 cc ce 8a 3d e5 c5 a4 3d 51 11 0e bd 03 25 5a bc
       0.067777246 0.08045558 -0.034684483 -0.013314488
000180 af 32 9d 3d 82 e1 1b bd f9 4d ee b9 6f 8c 42 bd
       0.07675683 -0.038056858 -0.00045452992 -0.04749721
000190 64 6a 07 be c4 1d 56 bc 73 dc 63 bd ae 39 dc bd
       -0.13224179 -0.01306862 -0.05563016 -0.10753189
0001a0 04 58 56 3c b3 3e 4e bd a6 0b 06 be de d8 03 be
       0.013082508 -0.050352763 -0.13090381 -0.12875697
0001b0 1f 70 0c bd 95 94 03 be 0e 1b 47 3e ca b7 2e 3d
       -0.034286615 -0.12849648 0.19443914 0.042655744
0001c0 fa b1 39 3d 62 49 06 be 0b 5a f8 bc b6 99 88 3d
       0.045335747 -0.13113931 -0.030316373 0.06669943
0001d0 5d 54 8f 3c 48 a4 b5 bd 69 a9 9e bd 7e 44 d4 bd
       0.017496282 -0.08869225 -0.07747156 -0.10364626
0001e0 ac 01 e8 bc a2 e3 d2 bc c0 6d e2 bd 5a a8 12 be
       -0.02832111 -0.02574331 -0.110560894 -0.14322034
0001f0 7c 5d 0c be 85 f4 84 bd 7f 8e ad bd 71 17 9b bd
       -0.13707536 -0.06491951 -0.084744446 -0.075728305
000200 10 bc 67 3e 85 aa 83 bd 98 52 7f 3e 3b 85 0a bb
       0.22630334 -0.064290084 0.24933851 -0.002113654
000210 57 5b 20 bd 28 1d fc 3d de 2c fc bc 68 8e 87 bd
       -0.03914961 0.123102486 -0.030783113 -0.06618959
000220 f6 5a 35 bd 29 25 23 be 7d 47 47 3b 2b 21 a4 3c
       -0.0442762 -0.15932144 0.00304076 0.020035347
000230 62 aa d2 3d b0 a1 05 be e0 b1 83 3d 71 1c 9f bd
       0.10286404 -0.1304996 0.06430411 -0.07769097
000240 8c 00 e9 3c d5 ca 54 3d a3 54 be 3d 78 a7 0d 3e
       0.028442644 0.05195125 0.09293487 0.13833416
000250 1c d5 ed 3d 52 71 06 be d5 4a 6f 3c 3a d4 90 bd
       0.11612913 -0.13129166 0.014605244 -0.07071729
000260 e6 b5 94 bc 61 60 04 be fb 79 c1 3d a4 af 13 be
       -0.018153142 -0.1292739 0.09447094 -0.1442247
000270 82 e8 45 3d b2 09 5a 3d e9 d0 8c 3d 60 20 2e bd
       0.04831744 0.053231902 0.06875784 -0.042511344
000280 58 e9 7e 3d a4 d9 50 3d 08 62 00 3d 8d db 31 be
       0.062234253 0.05098881 0.03134349 -0.17368908
000290 d5 1f 2e 3d c2 a3 91 bc ed 2d ba bd 0f fa 4f 3e
       0.042510826 -0.017778281 -0.09090791 0.20310234
0002a0 a3 12 db 3d 49 4c 0c be 66 8b 3d bd 7f 99 0e 3c
       0.10696914 -0.13700975 -0.04627552 0.0087035885
0002b0 f0 1a 93 3d f0 8e 98 bc 0b a8 3c bd 29 42 a2 bd
       0.07182872 -0.018622845 -0.046058696 -0.07922775
0002c0 e0 b8 f9 bd 7e 8f 80 3c 6e 62 17 3e a9 aa b0 bd
       -0.12193465 0.015693422 0.14783642 -0.08626301
0002d0 c8 3a a8 3d d8 42 d2 3d 02 ec 22 3d 8f d4 11 bc
       0.08214337 0.10266656 0.039775856 -0.008900776
0002e0 73 11 12 3e 15 24 c6 3d 7a 8d 9f 3d 77 4e 5f bc
       0.14264469 0.09674851 0.077906564 -0.013629547
0002f0 44 80 9b bb dd 2a 07 bd ed 24 75 3c 94 d1 b4 bc
       -0.004745515 -0.032999862 0.014962417 -0.02207259
000300 5b 8a 35 3d 48 9f d2 3d 38 78 c8 bb d4 6e 8d bd
       0.0443214 0.10284287 -0.006117847 -0.069059044
000310 76 52 19 bd 87 22 04 bd 94 6e d5 bb 27 84 53 3d
       -0.037432157 -0.03225949 -0.006513426 0.051639702
000320 b9 36 b3 bd 88 1f e6 bc 30 31 29 3e 4d c2 ca 3d
       -0.08750672 -0.028091207 0.1652267 0.09900341
000330 9f 65 28 3d b6 c2 3e be 74 cc 29 be 66 de 61 be
       0.04111254 -0.18628964 -0.16581899 -0.22057495
000340 7e c0 77 bd 99 f7 5b 3d 61 61 ec 3d 09 36 3f 3d
       -0.06048631 0.053702924 0.11542011 0.04668239
000350 62 af 8e bd 30 c6 9b bd a3 e3 05 3d 11 bb 83 3d
       -0.06967045 -0.07606161 0.032687794 0.064321645
000360 50 9f 0b bd 2a 3b 4f bd 61 a2 48 3d 71 a8 76 bd
       -0.03408748 -0.050593533 0.04898298 -0.060219232
000370 fd 83 d8 bd 1f 8a 83 3d 30 d3 0a be 4e 20 56 bd
       -0.1057205 0.06422829 -0.13557124 -0.052276902
000380 64 19 cf bd 23 aa f0 3d f5 b9 7d 3d 56 0d d2 3c
       -0.10112265 0.11751201 0.06194492 0.025641125
000390 37 38 1b be 38 19 9d bd 6b 1e d5 bd 86 04 bf 3d
       -0.15158163 -0.07670826 -0.104061924 0.09327035
0003a0 1d e7 b7 3d 54 00 e4 3d fd cf 1c 3e de a4 c0 3c
       0.08979628 0.11132875 0.15313716 0.023516115
0003b0 89 a9 ea bc 4b b3 46 be a0 b8 19 bd 40 a7 03 be
       -0.028645294 -0.19404332 -0.037529588 -0.1285677
0003c0 d4 ed 2e 3d 25 08 0f be 94 ec 01 bc d2 27 d4 bd
       0.04270728 -0.1396795 -0.00792994 -0.103591576
0003d0 13 42 37 bd 4e 91 1e be a4 29 9b bd 25 fd f1 3c
       -0.044740748 -0.15485117 -0.07576302 0.029539654
0003e0 7e 16 1f bd 0e 2e b5 3d da 4e b3 bc 40 f2 ff bd
       -0.03883981 0.08846675 -0.021888185 -0.124973774
0003f0 e4 a2 69 bb 1f ee 53 bd be 45 ff bc f0 e7 42 be
       -0.003565007 -0.05174076 -0.031161185 -0.1903379

net.0.bias f4 [256]
000000 42 6a 9f bc 78 de 16 3e 99 b1 37 be 8b b6 30 be
       -0.019459847 0.14733303 -0.17938842 -0.17257135
000010 34 0d 1c 3d b2 f2 86 bd dc c8 89 3d 80 36 3d 3d
       0.03809853 -0.06589259 0.06727764 0.046194553
000020 17 de 51 3c 40 4c 80 3d 3a f6 4c 3e b5 2e 89 3c
       0.012809298 0.062645435 0.20015803 0.016745904
000030 9e 5b f0 3d fd 5d 2c be aa 22 22 3e e0 5c 23 bd
       0.117362246 -0.16832729 0.15833536 -0.039883494
000040 8c b9 55 3d d3 35 19 be 6d cd da bd 81 20 01 be
       0.052178904 -0.14961939 -0.10683713 -0.12610056
000050 ab 81 a7 3d ae 7a f1 bc 30 28 25 be 78 e0 da 3d
       0.08179029 -0.029477444 -0.16128612 0.10687345
000060 5b 76 88 3b f0 10 3d 3e a3 74 31 3d ea bb 98 3d
       0.0041644997 0.18463492 0.043324124 0.07457717
000070 5c 29 1a 3e 06 cd 06 be e1 35 20 3e 83 b1 65 bd
       0.1505484 -0.13164148 0.15645553 -0.05607749
000080 48 a8 2c 3d a2 1e 03 be ed 35 e0 bd ba a2 b9 3d
       0.042152673 -0.12804654 -0.109477855 0.09064241
000090 20 4d 89 bd 36 5e 24 bb df 78 ec 3d 01 e9 35 3e
       -0.067041636 -0.0025080568 0.11546492 0.17764665
0000a0 97 de 44 be 9f d2 fb bb 52 65 a1 3d 61 cc 61 3e
       -0.19225536 -0.00768502 0.078806534 0.2205062
0000b0 0a e3 6b 38 17 7c 33 3d 7a 3f c0 bd c4 0f 67 3d
       5.6239813e-05 0.043819513 -0.09387107 0.05641152
0000c0 be 08 5d 3d fc c8 f4 bc c0 ba 4d 3c d9 de 17 be
       0.053963415 -0.029880993 0.012556732 -0.14831103
0000d0 8a 5d 96 3c 31 e5 8e bd af b5 d8 3d dd e2 1b 3e
       0.01835515 -0.069773085 0.105815284 0.1522326
0000e0 f1 49 e2 3d 51 84 3c be 72 18 fa 3c 6d 87 cd 3c
       0.110492595 -0.1840985 0.030529235 0.02508899
0000f0 18 ca 5d 3e ac 2a 9b 3d 55 9d 13 be 62 20 16 be
       0.21659124 0.075764984 -0.14415486 -0.1466079
000100 63 9f 1a be 6a e1 86 bd 5d 6b bf bd 8c 47 a6 3d
       -0.15099864 -0.06585963 -0.0934665 0.08119115
000110 af e6 c7 bd 58 14 c5 bd 01 0f 9b 3b 5e 38 03 bd
       -0.09760796 -0.09623021 0.004732013 -0.032036178
000120 04 a9 32 3e 43 a8 4e 3e b5 7e 90 bd 25 a0 e3 3d
       0.17447287 0.20181374 -0.070554174 0.111145295
000130 46 99 e9 3c 49 62 e5 3d 4d 16 f7 bd 41 56 10 bd
       0.02851547 0.11200387 -0.120648004 -0.035238508
000140 20 fa d4 bc c6 ef 80 3d 38 0f 05 3e 9f a1 05 3d
       -0.025998175 0.06295733 0.12994087 0.032624837
000150 c4 2c 2e 3d 0b 91 32 be 65 16 9c bd f0 0f fd bd
       0.04252316 -0.17438142 -0.07621459 -0.123565555
000160 21 98 71 be 41 bb 2a 3e 13 8f d6 bd 58 22 ab bd
       -0.23593189 0.16672994 -0.10476508 -0.0835616
000170 40 b9 14 be 28 61 c6 3c 8b 9d 92 bd 9f d6 07 be
       -0.14523792 0.02421625 -0.07158955 -0.13265465
000180 b1 b4 ee bd 20 96 90 3c 81 da e7 3c 9a d4 02 be
       -0.11655558 0.01764971 0.028302433 -0.12776414
000190 a8 d8 08 be 21 bf 53 bd 90 e6 d1 3d 04 73 a1 3d
       -0.13363898 -0.051695947 0.102490544 0.078832656
0001a0 69 df 0f 3d a0 4b 88 bc df 12 b8 bd e3 b6 a4 3c
       0.03512517 -0.016637623 -0.089879744 0.020106738
0001b0 01 ef 68 bd 3d 58 a9 3c dd 72 65 bd 50 ef a2 3d
       -0.056868557 0.020671958 -0.056017745 0.079558015
0001c0 35 87 65 3d 50 a5 16 3e 94 6b f3 3d 00 56 55 bd
       0.056037147 0.14711499 0.11885753 -0.05208397
0001d0 49 d8 27 3d 05 f7 0f be fd ed 0d be 36 b2 20 3e
       0.04097775 -0.14059074 -0.13860317 0.15692982
0001e0 9d 0d 25 3d 35 43 d5 bc 79 c4 b3 3d e3 a2 60 3d
       0.040296186 -0.026033023 0.087777086 0.05484284
0001f0 af 56 0b 3e 22 5c 59 3d 78 75 db bc ef f1 0e be
       0.13607286 0.05306638 -0.026789412 -0.13959478
000200 6d 16 35 be d7 f3 81 3e a0 c4 ef 3d 64 b1 0f be
       -0.17684336 0.25381348 0.11707425 -0.14032513
000210 e2 03 e2 3d 71 1c 26 be 58 5b d9 3d 33 92 e2 3d
       0.11035897 -0.16221787 0.106131256 0.110630415
000220 7c 20 95 3d 77 2b e7 3d 19 f7 cf bb 88 21 39 bd
       0.072815865 0.11287587 -0.006346595 -0.045197994
000230 91 87 b3 3b 86 6d 09 3e 60 fe 4b 3e 80 cd 34 3d
       0.0054788073 0.13420686 0.19921255 0.044141293
000240 71 75 1d 3e 99 2b f0 bd 41 2b eb bc 7f 68 8c 3d
       0.15376832 -0.117270656 -0.028707149 0.068558685
000250 22 c9 e0 3b 93 cd d7 3d b3 64 09 be 4d 51 85 bd
       0.0068599144 0.10537257 -0.1341732 -0.065096475
000260 f3 6e 99 3d 8d 62 8a 3c 9f fd d9 bd d8 e3 8c 3d
       0.07491865 0.016892696 -0.106440775 0.06879395
000270 94 e4 15 3d fa 15 34 3d cf c2 e7 3d fd d4 69 bd
       0.036594942 0.04396627 0.11316454 -0.057087887
000280 b1 32 12 be 6e 30 fe bd 4a 19 3f 3e 0f d5 7f bd
       -0.1427715 -0.12411581 0.18661991 -0.062459048
000290 d9 8c 53 3e 0d cf 45 bc f8 1e 05 3d 50 8c 23 3e
       0.20659198 -0.0120732905 0.032500237 0.15971494
0002a0 6b da fc bd 65 50 3d be 26 63 bd 3c a9 e3 ca bd
       -0.123463474 -0.184877 0.023118567 -0.09906704
0002b0 b8 61 9a 3d 69 03 95 3d 89 76 c2 3d b5 a4 4a 3d
       0.075381696 0.07276041 0.09495265 0.049473483
0002c0 a6 98 1d be 40 d0 3a be ae 13 ea bd 3f 3b 2b 3e
       -0.15390262 -0.18243504 -0.11429535 0.1672182
0002d0 1f 09 d4 bc b5 94 b8 3b 9c 39 4d bc 1f 40 9c bd
       -0.025883256 0.0056329616 -0.012525942 -0.07629418
0002e0 ac f3 e7 3d 13 33 c7 bc 26 17 a8 bd 0e 32 62 3e
       0.113257736 -0.024316346 -0.0820754 0.22089407
0002f0 38 bc 24 3e 3c 05 00 3e ae 1e dd 3d 8c b5 14 be
       0.16087425 0.12501997 0.10796867 -0.1452238
000300 ce 78 ee 3d e4 73 70 bd 10 19 bb 3c 9b 64 f0 3d
       0.116441354 -0.058704272 0.0228391 0.11737939
000310 6b e4 6b 3c fb 87 36 3e e5 a2 47 3b 82 ba c8 3d
       0.014397721 0.1782531 0.0030462083 0.098011985
000320 37 b3 a7 3c fc ea 26 be 26 9b 64 bd 8e b4 b9 bd
       0.020471198 -0.16300577 -0.055812024 -0.09067641
000330 90 15 f5 3c 4a 47 51 be 2d d4 56 be c0 2d 1b 3d
       0.029917508 -0.20437351 -0.20979376 0.037885427
000340 ef 18 0d be 7b 5f 25 bd eb 34 0a bd 15 4f a6 3d
       -0.13779043 -0.04037426 -0.033741873 0.081205525
000350 99 23 39 3e 5a 68 8f 3d ed 58 ac bd b5 62 18 3e
       0.18079986 0.07002325 -0.08415399 0.14881404
000360 b2 b5 4a 3e 2a e2 19 bd 8d b9 b8 3d fb 9a 97 3d
       0.19795874 -0.037569202 0.09019766 0.07402607
000370 81 50 3e be 5e cc ec bc 0a a9 ef bd 6a 95 e0 3d
       -0.18585397 -0.028906044 -0.117021635 0.109659985
000380 85 3e 09 3e be b9 2c be 61 43 79 bd c5 c1 76 bd
       0.13402756 -0.1686773 -0.060855273 -0.060243387
000390 8d bf 2f 3e b7 6f 91 bd b1 c4 43 3d 41 de 06 3b
       0.17162915 -0.07101386 0.047795 0.002057925
0003a0 18 23 7f bd 40 7b 64 bd fa 96 37 bd 6c 52 98 bd
       -0.062289327 -0.055781603 -0.044821717 -0.07437596
0003b0 02 02 fe bd d1 4d 6f 3d f9 23 a7 bc 3c 58 9c bc
       -0.12402727 0.05842382 -0.020402895 -0.019085042
0003c0 67 69 e2 3d 9e 45 d1 3d 72 03 29 bd 4a 1c ca bc
       0.1105526 0.102183565 -0.04126305 -0.024671692
0003d0 53 c8 44 be 37 c6 f8 bd 7d ed 23 bc 8c cf 8b bd
       -0.19217043 -0.121471815 -0.010005352 -0.06826696
0003e0 70 78 62 3d db 02 a8 bd c6 27 66 bd bc 8a 32 3c
       0.05529064 -0.0820367 -0.056190275 0.010897335
0003f0 2a 03 38 3e af 8b 03 3e 16 c7 f3 bd b2 69 25 bd
       0.17969957 0.12846254 -0.11903207 -0.040384002

net.2.weight f4 [256, 256]
000000 95 ab d2 3c dc 14 62 bc c7 e7 6e 3d f6 db 11 bd
       0.025716582 -0.013798919 0.05832651 -0.03561016
000010 b3 ec 7f bc 1b b5 bb bd d3 98 29 bd 3e 96 8d bd
       -0.015620398 -0.091654025 -0.04140551 -0.06913422
000020 6a df f8 3b 0e 7c 06 be d3 0a a7 bd 24 ef c3 bb
       0.0075949924 -0.1313326 -0.081563614 -0.0059794355
000030 cd 55 d2 3d 5e 4c 6e 3c d1 d4 92 3c 47 f8 2b bd
       0.102702715 0.014544575 0.017923744 -0.041984823
000040 4f 2a 1f 3d 16 39 df bc 6a d2 4a bd 75 4e 62 3d
       0.038858708 -0.0272489 -0.049517073 0.055250604
000050 91 44 26 bd 42 88 3a bc 36 d2 91 3d fc 79 02 3c
       -0.040592734 -0.011385025 0.07120173 0.007963654
000060 13 44 24 3c 44 25 09 3d 55 d0 0d be 19 47 89 bc
       0.010025996 0.033482805 -0.13849004 -0.016757535
000070 bb da 4c 3d 60 06 59 bc af b8 c1 bc a4 9a 6c bb
       0.050013285 -0.013246149 -0.023647634 -0.0036102915
000080 eb 54 96 bc 0f 0b ad 3d 19 87 8d 3b 01 23 f2 3c
       -0.018351039 0.08449375 0.0043190834 0.029557707
000090 32 f6 98 3d 47 f9 9c 3d 1e 08 90 3c 85 1d 19 3d
       0.07468833 0.076647334 0.017581996 0.037381668
0000a0 a1 89 1e bc 9f 32 fc bb 56 6a 5d bd 7b 1d 9f bd
       -0.009676368 -0.007696464 -0.054056488 -0.07769295
0000b0 cb e9 d7 3d b7 fa 7f bd da 7d a9 3b 58 df 14 bd
       0.10542639 -0.06249496 0.0051724734 -0.03634581
0000c0 69 03 8c bc 5f 9f bd bd c3 83 da bd 31 d5 07 3d
       -0.01709147 -0.09258913 -0.10669663 0.0331623
0000d0 60 68 87 bd 4f d4 66 bc 0f 6d c4 bb a4 57 db bc
       -0.06611705 -0.014088704 -0.005994446 -0.026775189
0000e0 ed a9 80 bd b8 5b b7 bc 5b 9a 0e 3c 10 b7 4b 3d
       -0.06282411 -0.022382602 0.008703793 0.04973513
0000f0 52 e2 8c bd 95 78 86 bb ae 45 bd 3c e5 1a 98 3d
       -0.06879105 -0.00410373 0.023104515 0.07427005
000100 64 d1 0d 3d 44 b6 ca ba 47 d6 88 3d d0 af 98 bd
       0.03462352 -0.0015465696 0.06681495 -0.074554086
000110 9d 26 86 bd 27 e7 c5 3c 14 31 d0 bd 33 76 c1 bc
       -0.06550334 0.024158074 -0.10165611 -0.023615932
000120 96 f9 c0 bd f9 6b 8e 3d b5 2e 80 bc 80 c7 18 bd
       -0.09422605 0.06954188 -0.015647272 -0.037299633
000130 0a 13 96 bd 14 f4 80 bd c8 26 b2 3d cd bc 70 bc
       -0.0732785 -0.06296554 0.08698803 -0.014693451
000140 af cd a3 3d 48 b7 b9 3d 65 63 b7 3c 8d 4b b4 3d
       0.079982154 0.09068161 0.022386262 0.08803473
000150 9d 5a a8 3c 2c 32 e5 3b 11 96 9a 3d 0a 19 1e 3d
       0.02055102 0.0069945063 0.07548154 0.038598098
000160 d4 44 27 3b d5 b8 a5 3c b3 5b a0 bd 9a 7f a2 bc
       0.0025523202 0.020229736 -0.0782999 -0.019836236
000170 a2 77 f8 3d 73 0b cf 3d 44 6b 43 bd 33 33 c4 3d
       0.12132193 0.10109606 -0.04770972 0.09580078
000180 c9 0c 39 bc c1 6c 0e bb 5f 87 97 3c 5f 9a 3a bd
       -0.011294552 -0.0021732303 0.018497167 -0.045557376
000190 a7 da 95 3d 73 3c 3f 3b b5 b9 06 be 01 b2 96 3d
       0.07317095 0.0029180318 -0.13156779 0.0735817
0001a0 10 30 77 bc 18 3e 65 3c 5a e6 8e 3d a1 05 f1 3c
       -0.015087143 0.013991855 0.0697753 0.02942163
0001b0 05 23 66 3c 69 86 04 3d 39 e1 38 bc b2 42 2e bd
       0.014046435 0.032354746 -0.011284166 -0.042544074
0001c0 06 8d 94 3b c1 64 7c 39 d8 8b ae bd ae 94 4e bd
       0.004533413 0.00024070127 -0.08522767 -0.05043476
0001d0 a3 18 a4 3d 3e e1 38 bd 41 80 62 3d 8f 61 f1 39
       0.080125116 -0.045136683 0.055298094 0.0004603979
0001e0 65 04 3a bd f1 5a 18 bd 36 9c 9d bc ca 1c 3d 3d
       -0.045414347 -0.037196103 -0.019239526 0.046170034
0001f0 7a 02 55 bd d7 25 31 bd 82 ab 6d 3d 41 54 31 3d
       -0.052004315 -0.043248978 0.05802489 0.04329324
000200 65 d3 1e bd 97 40 67 3d bf 45 69 bc 88 30 fc 3d
       -0.03877582 0.056458082 -0.01423782 0.12313944
000210 d5 5c 83 bd 72 78 4c bd 0f e8 4d bb 94 91 08 3d
       -0.06414191 -0.049919553 -0.0031418835 0.03334196
000220 96 be 85 bd 77 3d 35 3d 04 3d d7 3c 2e 40 ac 3d
       -0.06530492 0.04424807 0.026274212 0.08410679
000230 ab ed ef bd 14 0f cd bd 39 d9 ca bb 28 08 96 3c
       -0.117152534 -0.100126415 -0.0061904457 0.018314436
000240 d3 9e 30 bc c9 a5 0f bd 93 2b 52 3d 3d 83 83 3d
       -0.010780054 -0.035070214 0.051311087 0.06421516
000250 18 ed 57 bc e8 b6 2b bb de fc 58 bd 01 5d 1b 3d
       -0.013179086 -0.002620155 -0.052975528 0.037930492
000260 93 f8 41 3c 97 56 f4 bc d5 c3 98 bd e6 51 29 bd
       0.01183905 -0.029826446 -0.07459227 -0.04133787
000270 1f d3 4d bc d5 26 22 bd 77 e9 de 39 53 6d 9f bc
       -0.012562542 -0.039587814 0.00042517085 -0.01946131
000280 c1 4f 82 3d 5a 61 a7 3c 20 49 39 3b 0f cb 4d 3c
       0.06362868 0.020432163 0.0028272346 0.01256062
000290 95 3f 19 bc 03 fb 97 bd 2d ff 27 3d b7 f8 52 3d
       -0.009353538 -0.074209236 0.04101484 0.051506724
0002a0 b4 75 22 bd 45 47 34 3d 90 05 e3 bc 57 2c a0 bc
       -0.03966303 0.04401328 -0.027712613 -0.019552393
0002b0 f1 85 59 bc 36 40 94 3d d2 84 b8 bb 85 86 f9 3c
       -0.013276563 0.0723881 -0.005631068 0.030459652
0002c0 6c 0c f4 3c 82 e3 17 3d fe 20 87 bd 5a 9d 61 3d
       0.02979108 0.037082203 -0.0659809 0.055081703
0002d0 cf a7 de 3c 67 94 ae 3d 6c 2f 80 bd 1c 3d 14 3d
       0.027179627 0.08524399 -0.06259045 0.03619109
0002e0 0b c0 9e bc 2e 59 53 bd 68 d1 57 3d 91 36 21 3d
       -0.019378683 -0.05159872 0.05268994 0.03935868
0002f0 1e 7e 28 bd ca 6e 64 bd 53 ed 8c 3d aa 6f 13 bd
       -0.0411359 -0.05576972 0.068812035 -0.035995163
000300 ca 19 13 3d 89 55 b1 bd b8 ee 5f bd 79 5e 6a bb
       0.035913266 -0.08658893 -0.05467102 -0.0035761876
000310 a2 ca c7 ba c4 29 99 3d f1 79 44 bb c1 e3 99 3d
       -0.0015242884 0.07478669 -0.002997991 0.07514144
000320 91 1d d3 3d 63 97 56 bd ab cf 62 3c 11 dc fb 3b
       0.10308374 -0.052390467 0.013843457 0.007686146
000330 a7 70 cd bd 75 a4 11 3d db e0 b0 bb 2a 51 a8 bd
       -0.10031252 0.03555723 -0.0053978986 -0.08218606
000340 db 57 40 bc 37 c8 25 3d 81 54 5a ba e6 be 4f 3d
       -0.011739696 0.040474143 -0.0008328632 0.050719164
000350 4f 5b 08 3c 96 cb 2c 3d ce 84 b8 bc 30 5d f7 3c
       0.008322551 0.042186342 -0.022524264 0.030195802
000360 d7 5f 28 3d 26 7d 00 bb a1 a2 70 bd 94 b8 12 3d
       0.041107025 -0.0019605844 -0.058748845 0.03582056
000370 ab f6 f0 bc 3b 0a 07 3d 29 8a fd bc 1c 0b 00 3d
       -0.029414495 0.03296874 -0.030949669 0.031260595
000380 cc 40 f3 bc e8 94 be bb f8 e8 c0 bd eb 81 7f 3d
       -0.029693983 -0.005816091 -0.09419435 0.06237976
000390 8a bf ba bd db e5 59 3d 01 97 8a 3d e9 7b b6 bd
       -0.091185644 0.053197723 0.06767083 -0.08910353
0003a0 cf 15 99 bd 78 06 29 3d 80 66 7d 3b 3e e8 a7 bc
       -0.07474863 0.041265935 0.003866583 -0.020496484
0003b0 2d 3c 5f 3d 51 41 39 bd 30 c7 3e 3c 3f 21 c1 3b
       0.054500747 -0.045228306 0.01164417 0.005893856
0003c0 38 f3 ff 3c 51 be b9 bc 45 9a ac 3c 53 2d 0f bc
       0.031243905 -0.022673758 0.021069655 -0.0087388335
0003d0 07 69 53 3b 1f 31 c7 bc 5d 9b 3c 3d 69 96 60 3d
       0.0032258646 -0.024315415 0.046046603 0.054830942
0003e0 d7 58 1d bc 53 cd 0a bd 7f 57 27 bd ec 03 81 bd
       -0.009603701 -0.03388722 -0.040854927 -0.06299576
0003f0 2c 3c 8d 3c db e3 b5 3c e5 01 02 bd 6e ae 49 3d
       0.017240606 0.022203377 -0.031740088 0.049238615

net.2.bias f4 [256]
000000 45 e1 f4 bc b7 f0 16 bd 85 87 52 bc e4 78 a6 bd
       -0.029892573 -0.036850657 -0.012849693 -0.08128527
000010 10 20 11 bd 77 de af 3c 9d 21 3a bc 33 90 13 be
       -0.035430968 0.021468384 -0.011360553 -0.14410476
000020 a2 75 39 3d 46 89 89 3c 67 e1 2c bd 5c 27 5e 3d
       0.0452782 0.01678909 -0.042207148 0.054236755
000030 04 e4 d8 bd b7 be 2c 3c 4d e9 68 3d aa d2 18 3d
       -0.105903655 0.010543517 0.056863118 0.03731028
000040 c5 63 81 bc 79 01 83 bc f9 52 c6 bc d2 84 8a 3d
       -0.015794644 -0.015991913 -0.024209486 0.06763615
000050 fb c9 ff bc 7a 53 3d bc 57 8f 36 bb 34 6e 7a 3d
       -0.031224241 -0.011555547 -0.0027856433 0.061140254
000060 f0 c4 33 3d 02 5c 10 bc 25 21 2f bc f3 92 23 3d
       0.043888986 -0.008810999 -0.010689055 0.039935064
000070 ee 1d a8 bc c8 bb 10 be d4 d8 68 bd 10 1b 2d 3d
       -0.020522084 -0.14134133 -0.05684741 0.042262137
000080 3f 2e ab bc 91 fa c4 3c b7 80 91 be 39 e5 cc bc
       -0.020896075 0.02404526 -0.28418514 -0.025011646
000090 1f 91 ff bc 37 d1 92 bd cc 61 6a bb b7 d3 1d bd
       -0.031197129 -0.07168811 -0.0035763858 -0.038531985
0000a0 dd 3c a7 3c 21 1e ce bd 87 c8 92 bd 63 2d d7 3c
       0.020414764 -0.100643404 -0.07167154 0.02626676
0000b0 a3 e1 a5 3c 07 85 f6 3b 9f 6b 95 bc 8e 7e 86 3c
       0.020249194 0.0075231823 -0.018239794 0.016417768
0000c0 0e 44 a2 3c 41 c7 8d bd bf 1d 35 3d 48 59 19 bc
       0.019807842 -0.0692277 0.04421782 -0.009359665
0000d0 3a 64 ae 3b 3e ce b5 3c be 1e 26 3d 40 29 f3 3c
       0.0053220065 0.02219307 0.04055666 0.029682755
0000e0 d0 14 85 3d c8 3a e7 bc 10 9c 53 3d 0f 98 9d bd
       0.0649811 -0.028226271 0.051662505 -0.076950185
0000f0 2a 35 14 bd a5 fb ff bb c6 6c 28 bc 48 09 88 3b
       -0.036183514 -0.007811981 -0.01027984 0.004151497
000100 81 fc cd bd 00 3c 84 3d 94 58 00 bc 43 cb 78 bd
       -0.10057927 0.064567566 -0.007833619 -0.06074072
000110 97 ac 17 3d c8 a9 58 3c 40 8f 4d be 05 58 4c bd
       0.03702983 0.013224073 -0.20074177 -0.04988863
000120 4d 01 f8 bc 7a 13 80 3d dd 4c 4f bc 13 bc 27 bd
       -0.030274058 0.06253715 -0.012652603 -0.040950846
000130 c4 25 2f bd 01 83 98 3c 98 39 b9 b9 0c e6 e2 bc
       -0.042760625 0.018617155 -0.0003532886 -0.027697586
000140 29 71 31 bd c4 41 aa bd 48 6f 28 bd 2e fe 27 3c
       -0.04332081 -0.08313325 -0.04112175 0.010253472
000150 b5 e5 15 3d 1c d9 34 bd a8 bf 00 bc 74 6a 2c 3d
       0.03659602 -0.044152364 -0.007858194 0.04209371
000160 42 5f b3 bd ee cd 24 3d 35 d0 fb 3c 2e cc ed 3c
       -0.08758403 0.040235452 0.03073893 0.029028025
000170 7f 0a bb bc 4b c1 bf 3b c8 b6 4a ba 8c 1b 75 3c
       -0.022832153 0.0058518997 -0.0007732925 0.014960181
000180 cb 5f 84 be fe ef 22 bc e8 1e 49 3d d7 0c 91 3d
       -0.25854334 -0.009944914 0.04910174 0.07082527
000190 62 9c 0d 3d 24 e7 6f 3d 59 b3 3b bd bd 20 2c 3d
       0.034572966 0.058570042 -0.045825336 0.04202341
0001a0 5b 29 0d 3b b2 d5 fc bc 0c ad a2 bc 66 95 6a 3d
       0.0021539542 -0.030863617 -0.019857906 0.057271384
0001b0 c4 db df bc 68 57 87 3d eb 2a cf 3c b0 a5 a6 bc
       -0.027326472 0.06608468 0.02528902 -0.020342678
0001c0 6a 47 c3 bc 37 69 91 3b d3 2f 85 bb 8c dd 07 bd
       -0.023837764 0.0044375914 -0.004064539 -0.033170268
0001d0 97 d9 5a be 52 4f fd 3c bc 17 b5 3c b0 bc bc bc
       -0.21372066 0.030921612 0.022106044 -0.023039192
0001e0 df 89 7b 3d 27 91 f5 3c c2 72 80 3d 51 5b 1e bd
       0.06141078 0.02997644 0.06271888 -0.038661305
0001f0 2f eb 65 3d db 28 d5 3c 6f 1f 04 3d 9c f7 0f bd
       0.05613249 0.026020458 0.03225654 -0.035148248
000200 44 be 1e bc d4 65 7f 3c 24 fe 25 be 73 65 76 be
       -0.009688918 0.015588243 -0.16210228 -0.24062137
000210 cb 2e 39 3d 11 13 8b 3d 15 be c1 bd b1 75 64 3c
       0.04521064 0.06790746 -0.094600834 0.013944075
000220 83 82 02 bc e5 32 40 3c 67 3c 41 be e7 51 a0 3d
       -0.007965687 0.011730884 -0.18870698 0.07828122
000230 89 45 95 bc e2 56 13 bd e6 e7 4a bc 55 0f 33 3b
       -0.018221634 -0.03597153 -0.01238439 0.002732237
000240 ff 95 0c 3d 0d 86 84 bd 86 7b 35 3d 54 44 27 be
       0.034322735 -0.06470881 0.044307254 -0.16334659
000250 2e a5 03 bd e0 b4 7d 3c 7e c9 10 3d a1 20 ec bd
       -0.03213995 0.0154850185 0.035348408 -0.11529661
000260 18 73 dd bd 35 58 4b 3c 68 23 e9 3c f2 85 27 bd
       -0.10812968 0.012411167 0.028459266 -0.040899225
000270 11 22 76 bd f8 2d 46 3d ff e5 5a bd 29 43 ab 3c
       -0.060091082 0.048383683 -0.053441998 0.020906048
000280 a5 06 06 be 98 04 62 bd 27 06 14 3d a6 34 39 bc
       -0.13088472 -0.055180162 0.03613868 -0.011304056
000290 e4 c7 76 bd 7d b5 78 3d 41 85 a4 bb 12 c3 27 3d
       -0.060249224 0.060719956 -0.005020768 0.040957518
0002a0 90 96 37 bd c9 2a d2 3c 1f c9 96 3c 25 f1 e8 bc
       -0.044821322 0.025655167 0.018406449 -0.0284353
0002b0 b1 c0 49 be 41 f6 7e 3c 0f 61 30 bd 45 95 3a bd
       -0.19702412 0.015561641 -0.043061312 -0.04555251
0002c0 66 e2 64 3d 68 a0 ac 3c 0d 15 65 3d d5 da 20 3d
       0.055879973 0.021072581 0.05592828 0.039271194
0002d0 62 c0 89 bd f6 9e 94 bc 5a 2b 81 3c f6 d7 0b bd
       -0.06726147 -0.018142205 0.015767742 -0.034141503
0002e0 6b 0d 93 3d 10 31 f3 3b 45 9a 92 bc fd ce 3d 3b
       0.07180294 0.00742162 -0.017895827 0.0028962486
0002f0 e6 37 8d bd 00 32 02 bd 0c 5f 4a 3d 5e f4 18 3d
       -0.068954274 -0.031785965 0.04940705 0.03734242
000300 d6 fe 06 bd cd 99 e7 bc a9 90 32 3c 00 8f 22 3d
       -0.032957874 -0.02827158 0.0108987475 0.039687157
000310 06 47 01 bd bc d2 37 3c 9e 71 63 3d 06 b6 8b bd
       -0.031561874 0.011219677 0.055528276 -0.068218276
000320 93 a8 ab 3d d4 e3 30 3d ef ec 38 be 0c 8b 1d 3d
       0.08381762 0.043186024 -0.18059133 0.038462684
000330 6a 3c 8d 3d b1 e6 5f 3d 82 46 32 bd 7b 48 cf 3c
       0.06896289 0.054663364 -0.043524273 0.025303116
000340 14 38 13 bc 5e b2 b7 3b 08 8a 9c 3d 1e 3e 74 bd
       -0.008985538 0.00560598 0.07643515 -0.059629552
000350 33 ba 2f bd 06 e2 a6 bd 1c 96 c8 bc 40 b7 4f bd
       -0.042902183 -0.08148579 -0.02448564 -0.05071187
000360 ad b4 19 3c 99 38 e4 3c fc da 18 3d 7e 98 09 bd
       0.009381455 0.02785902 0.037318215 -0.033592694
000370 d3 24 5f bd 86 a6 2f 3d 9f ce c0 ba 10 59 b1 3c
       -0.054478478 0.04288342 -0.0014710015 0.021648914
000380 02 b7 4a bd a1 7f 49 3d 02 89 90 3d 8e f1 a0 bb
       -0.049490936 0.049193982 0.07057382 -0.004911608
000390 67 5f 51 bd ee aa 13 bd 7a 0c 5e bd d8 76 09 3d
       -0.051116373 -0.036051683 -0.054211117 0.033560604
0003a0 18 58 cd 3c 3f bc 6c 3d 8c 33 5c be 8e c6 9d 3c
       0.02506642 0.057796713 -0.21504039 0.019259717
0003b0 c2 ba e2 3c 02 ba 3c bc d6 d3 27 3d ab f5 4f 3a
       0.027676944 -0.011518957 0.040973507 0.0007933031
0003c0 97 57 98 3d 3b 7d 0d 3d d0 cc 96 ba 28 74 7c bc
       0.074385814 0.034543257 -0.0011505131 -0.015408553
0003d0 c2 de 5b 3d 31 85 93 bc 88 4b 2f 3d 00 20 59 3d
       0.053679235 -0.018007847 0.04279664 0.053009033
0003e0 32 e9 2d 3d 48 52 07 3d e1 33 17 be 64 7f a7 bc
       0.04245872 0.033037454 -0.14765884 -0.020446487
0003f0 1d 44 61 3d 1d f2 53 3d 5e 43 ac bc 34 2d 50 bd
       0.0549966 0.05174457 -0.021028217 -0.05082436

net.4.weight f4 [7, 256]
000000 e5 7d 62 3d ec 3d 53 bd c2 16 04 3e 83 bc cb bd
       0.055295844 -0.051572725 0.12899306 -0.09948065
000010 d4 d1 59 bc 75 eb 80 bd dd 59 35 bd a3 0b 5e bc
       -0.013294656 -0.0629491 -0.044275153 -0.013552579
000020 a9 93 0a 3d d4 bb 00 3c 0c 2e 92 3c c7 0e 3d bd
       0.033832226 0.007857282 0.017844222 -0.04615667
000030 a3 44 20 3d f3 c7 2b bd 7c f3 2e 3d aa ad 00 bd
       0.039127957 -0.041938733 0.042712674 -0.03141562
000040 27 a2 9c bc d7 bd 20 3d 20 a5 06 3c e2 7b 7f 3d
       -0.019120289 0.039243545 0.00821808 0.062374003
000050 04 30 09 3d e9 57 53 3d b0 0d f1 3b 5e 55 5b 3d
       0.033493057 0.05159751 0.007356368 0.05354821
000060 fa 99 63 3d 5c 9f 9d bc e0 a6 89 bc 98 76 62 3c
       0.055566765 -0.019241028 -0.016803205 0.01382222
000070 d0 5b 53 3d 80 13 96 be c2 a4 0a 3d 00 64 76 bd
       0.05160123 -0.29311752 0.03384853 -0.06015396
000080 59 fb c2 3c 53 02 28 bd 14 c9 c8 bb 85 c5 52 bb
       0.023801493 -0.04101784 -0.006127486 -0.0032161188
000090 48 93 c5 bc 81 e6 b0 bc 54 78 36 3c 7a f3 00 bd
       -0.02411808 -0.021594288 0.011137087 -0.031482197
0000a0 11 ae 9a bc 75 77 65 3c d3 b8 ba 3d 9f cd 2b 3d
       -0.01888183 0.014005532 0.09117284 0.041944142
0000b0 42 43 f9 bc aa f6 3a bd b1 5e 77 bd fd 40 20 bd
       -0.030427579 -0.045645393 -0.06039304 -0.039124478
0000c0 08 42 5b bd 46 7e f3 3c c2 c7 23 3c 5d 3f cc bd
       -0.05352977 0.029723298 0.009996356 -0.09973023
0000d0 b5 e0 d0 bb a6 ce 41 3d 89 8b 49 bd f0 35 81 bd
       -0.0063744434 0.047316216 -0.049205337 -0.06309116
0000e0 bd 9d c2 3b 60 a1 81 bc 79 1a 98 bc 79 18 8e 3d
       0.005939214 -0.01582402 -0.01856731 0.069382615
0000f0 5c 5f 58 3d d9 ff 4a 3d 6a e1 53 3d 6d 94 b3 bd
       0.052825317 0.0495604 0.051728643 -0.08768544
000100 f2 58 b1 3c 36 34 66 3c 4c 9b 62 3d 4b 98 c7 bc
       0.021648858 0.014050534 0.055323884 -0.024364611
000110 d8 d5 5d bd ea 29 1f 3d 5b b1 56 3c 73 a5 92 bb
       -0.054159015 0.03885833 0.013103808 -0.0044752895
000120 d7 d1 c4 3c d7 9d 6c bb 19 9c 1b 3d 2b 32 93 bc
       0.02402584 -0.0036104822 0.037990663 -0.017968258
000130 32 23 fd bc 73 7c 86 bd 7a 60 56 3d ff 6e 08 bd
       -0.030900571 -0.065667056 0.0523381 -0.03330898
000140 40 d8 e5 bb 86 97 da bd f4 87 2e 3c 35 bc b2 bc
       -0.0070143044 -0.10673432 0.010652531 -0.02181826
000150 9f 3d 9e bc 15 4d b5 bc 25 fb 23 3c 5c f5 1c 3d
       -0.019316493 -0.022131482 0.010008608 0.03831993
000160 d1 e7 33 3c 1c 21 e4 bc 41 e9 f7 ba b3 22 f9 bb
       0.010980562 -0.027847819 -0.001891412 -0.0076030134
000170 28 c1 04 3d bb f9 6e 3c a4 09 e2 b9 7e 74 22 3c
       0.03241077 0.014585908 -0.00043113262 0.009915469
000180 b0 fe 96 bf a7 a7 09 bd 4d 14 cf 3c 8e 02 7c bd
       -1.1796474 -0.03360715 0.025278235 -0.061525874
000190 a4 ba 51 bd 00 90 86 3d cb aa 80 3d cf 23 81 bc
       -0.051203385 0.065704346 0.06282576 -0.015764145
0001a0 34 b1 6d bd 2e 6c 69 bd f2 14 16 3d e0 09 8d bd
       -0.058030322 -0.056987934 0.03664107 -0.06886649
0001b0 a8 be c4 3b 8c 58 94 bd 48 15 52 3d 0b 01 09 bd
       0.0060041733 -0.072434515 0.051289827 -0.03344826
0001c0 ce 65 89 3c d2 16 cb ba 52 5b ee 3b 2c ce f5 3a
       0.016772177 -0.0015494472 0.00727407 0.0018753461
0001d0 d9 d1 bd 3c 5d 9c 45 bd 5d ae 56 3d c5 90 6f bd
       0.023171352 -0.048244823 0.05241238 -0.058487672
0001e0 fe fb 82 bc 29 01 c9 bb cc 21 87 bd b4 27 2c 3d
       -0.0159893 -0.0061341715 -0.06598243 0.04203005
0001f0 0a 06 1b bd 9c b4 b1 3d 94 be 72 bd 39 a8 4f bd
       -0.037847556 0.08677027 -0.05926378 -0.05069754
000200 0c 34 99 bd 9c 26 d3 bb 1f f6 56 bb 8e 99 64 bc
       -0.0748063 -0.0064438116 -0.0032800508 -0.013952626
000210 6e 96 35 3d e9 61 01 bc 61 8a 17 3d ec 1e f4 3c
       0.044332914 -0.007896879 0.036997203 0.029799901
000220 1a 08 c0 bc 72 3f 8a bc 57 db 10 bc 6c 8a 98 bb
       -0.023441363 -0.016875956 -0.008841357 -0.004655173
000230 8a 7f 06 bd fe 8c f5 3c 0f 25 b8 3a c0 91 d5 bc
       -0.032836474 0.029974457 0.001404913 -0.026070476
000240 d2 de 17 3d 8d bd 1b bd 96 4e 5e 3d 18 04 08 bd
       0.037077732 -0.038022567 0.054274164 -0.03320703
000250 62 70 e2 bc 59 c5 9d 3a 77 7f 48 3d 5c e2 86 ba
       -0.027641479 0.0012036964 0.048949685 -0.0010290849
000260 2e 80 9c bc 36 44 71 3d 6d 59 cd bb 52 60 39 bc
       -0.01910409 0.05890294 -0.006266764 -0.011314468
000270 d4 6e 7a 3d 0c 6f 2c 3c 7f 0a 6b bc f8 78 61 bc
       0.06114085 0.0105245225 -0.014345764 -0.013761751
000280 76 d5 26 3d 51 a6 ef 3c 2f a5 16 bd f7 58 55 bd
       0.040730916 0.02925411 -0.036778625 -0.052086797
000290 c3 17 74 bc ee bb c8 bc 0f 38 c0 bc 3f 3e 06 bc
       -0.014898243 -0.024503674 -0.02346423 -0.008193552
0002a0 b6 48 31 3c 56 a6 93 3b 81 90 48 bd da a9 30 3d
       0.010820558 0.004505913 -0.048965935 0.043130733
0002b0 be c3 13 3c b5 71 6f ba 18 01 0a 3c 46 7d e5 3a
       0.009018837 -0.000913407 0.008423112 0.0017508648
0002c0 02 93 de 3c de 93 22 3d 59 7f 6f bc b4 4c 7a bd
       0.027169708 0.0396918 -0.014617764 -0.061108306
0002d0 36 90 7b 3d da f1 06 3d e4 b5 e7 3c e6 a3 dd 3b
       0.061416827 0.03294549 0.028284974 0.006763923
0002e0 30 81 5f ba cd 3f e8 3c 21 16 29 3e 31 3b b3 bc
       -0.00085260253 0.028350735 0.16512348 -0.02187881
0002f0 3f 1e 1d 3d 0b d0 28 3d 5d a6 33 bc 12 17 b2 3c
       0.038358923 0.04121403 -0.010964957 0.021739516
000300 b2 12 94 3c d9 48 07 3d 7e 54 75 3d af a1 c3 3c
       0.01807532 0.033028457 0.05989503 0.023880808
000310 7f 9d ae bb 94 65 72 bd 68 fb f7 3c 42 56 dd 3c
       -0.0053288336 -0.059178904 0.030271247 0.02701867
000320 93 94 83 bd 88 50 89 3d 8b 6c 8d bb af 02 61 3c
       -0.06424823 0.06704813 -0.004315918 0.01373355
000330 3c 0a af bc 42 9f b3 bc 4e 3c 50 bc 55 ee 83 bd
       -0.021367185 -0.021926526 -0.01270969 -0.064419426
000340 3c 51 00 bd 77 21 09 bd 05 6a 39 bd 6a 8f 77 bc
       -0.03132747 -0.03347918 -0.045267124 -0.015109876
000350 8c 1b 2d bc 3d c8 94 bc 43 b2 2a 3d e2 a4 a9 bd
       -0.01056565 -0.018161887 0.04167391 -0.08283402
000360 f1 26 95 37 04 a1 17 bd 19 0e 5c 3d 30 df 51 bc
       1.7780318e-05 -0.03701879 0.053724382 -0.01280956
000370 46 f4 21 3e d0 bf 44 3d 85 9a 25 bd 7a ab 5e 3d
       0.15815839 0.04803449 -0.040430564 0.05436275
000380 89 3c 4b bd 23 c6 2f 3c ab 10 26 bd ba 05 90 3c
       -0.049618278 0.010728392 -0.04054324 0.017580856
000390 e5 c3 79 bc eb 20 1d 3d 7a d9 8d 3c e3 0c 26 bd
       -0.015244459 0.03836147 0.017315615 -0.040539633
0003a0 3d 94 37 3d 60 91 08 bc f4 4e 6e 3b 76 93 3c bd
       0.044819105 -0.008335441 0.0036362978 -0.046039067
0003b0 1d 61 3a 3d 62 a0 09 bd 67 9f c3 3c 14 75 4b bc
       0.04550277 -0.03360022 0.02387972 -0.01241805
0003c0 5b 8a dc bc 98 13 28 bd 25 6b 85 3d 29 81 7c 3c
       -0.026921442 -0.04103431 0.06514577 0.015411654
0003d0 43 e0 85 3c e5 75 31 bd be 82 85 3d 75 6f 17 bd
       0.016342288 -0.043325324 0.06519078 -0.036971528
0003e0 62 b7 d4 bc a4 c4 d4 3c 4c a7 81 3f a1 16 5a 3d
       -0.02596635 0.025972672 1.012918 0.053244237
0003f0 cc 9a 88 bc fd 14 27 3d 63 d9 2b 3d 55 e5 01 bc
       -0.016675375 0.0407915 0.041955363 -0.007928212

net.4.bias f4 [7]
000000 34 f6 2f 3d a3 ff 40 3d 1b 4c 55 bc e7 22 f0 3b
       0.042959407 0.047118794 -0.013018633 0.0073283794
000010 83 53 03 bc d6 3f 59 bd 4d 01 29 3d
       -0.008015516 -0.053039394 0.041261006
