bc_out/bc_policy_best.pt (torch, 314062 bytes, 6 tensors)

net.0.weight f4 [256, 39]
00000000: e4d6 e53d 8c85 e63d 4c7c 3fbd cd2a c33c
00000010: f3de 11bd 3e55 d83c de6b d6bd 49cc 213e
00000020: f630 4d3e a628 11be b27b 3c3e e341 9a3d
00000030: 107a c73d 6267 aabb b651 b23d fdd2 91bc
00000040: 28f8 623d ae52 513d 3b30 aabd f0c5 4a3d
00000050: f965 7abd aea0 2f3c a128 8bbd 0e08 fb3d
00000060: 605b debd d7f3 54bd 9bdc 11bd 437d 8dbd
00000070: 0654 36bc da68 1abe 7191 043e 7591 26be
00000080: 02d9 043e 8227 ab3b 42db 6ebd fba0 293d
00000090: 9c1e 9f3d 37b7 d63c 80fb 873d 2117 9cbd
000000a0: e712 21bb 28e4 53bd e975 363d 48cd 6b3e
000000b0: 52c8 993d 1ae2 ddbd 044b ad3d 65f1 693d
000000c0: 9ac5 3c3e c096 10be e5e8 2dbe d0f9 b5bd
000000d0: 3dd2 ffbd 39bc e03d 878f ed3c e318 283d
000000e0: c2cd f03c 0517 b2bd 65f8 ed3d 82bc 7cbd
000000f0: 85f6 bd3c d0a7 68bc 4f81 6a3d 9771 093d
00000100: 6853 da3b 4b3e e8bc 3c88 003e 31e0 f0bd
00000110: 3ec4 87bd b900 bcbc 4f91 a03d bd48 ad3d
00000120: 58a6 133e cef5 e8bd f863 eebd aa31 d9bd
00000130: 01ae f1bd 8396 903d bed8 593d 9bcd e03d
00000140: b0be 89bd b8f6 cbbd 78bc d83d c0d7 f1bd
00000150: dd5b a53d 0f7c 49bd 7662 2e3e fe7d 4abe
00000160: f4bb 28be eb57 d93d d172 58bc 10ec b5bd
00000170: a43f 873d ceda ac3d 964b 0bbd c89d 73bc
00000180: 3646 9e3d a81c 24bd bd13 c33a eb10 3fbd
00000190: cde3 03be c9ab 61bc 880c 7abd d509 e1bd
000001a0: cbb0 6a3c 74ec 64bd 7670 0bbe 094c 04be
000001b0: ff93 13bd de2d 03be 6e24 413e a2b3 2a3d
000001c0: 9596 313d e92b 06be 2744 0abd 1414 773d
000001d0: 03dc 933c 1aac b2bd 9b6c 90bd dd8b d3bd
000001e0: 038a c7bc 0d2d c6bc d76f dfbd a745 10be
000001f0: 5b43 10be 2def 73bd f584 a1bd 9d4e aabd
00000200: 6734 633e 4904 8abd f4b8 7f3e b9b0 9e3b
00000210: 38b8 28bd 6235 003e 1723 f9bc 633c 91bd
00000220: 811d 40bd 2c26 26be 6c9d 2b3b 8d38 c23c
00000230: 4008 ce3d 9e5c 03be 0e9f 813d b09d a1bd
00000240: a677 0c3d af46 463d fc7e c23d 4bc1 0b3e
00000250: 1ff5 f23d d5b2 0dbe 58ae 8f3c 0ebb a1bd
00000260: e78b 9dbc 54ba 02be d239 c63d a81d 12be
00000270: f124 4c3d 8083 553d 03d5 8a3d a995 3cbd
00000280: d945 823d 4b20 543d 4719 073d bdae 2fbe
00000290: b065 2e3d 06fc 97bc 142c b7bd e72f 513e
000002a0: 7340 db3d f85f 0bbe b2ef 46bd 6784 ff3b
000002b0: 30f0 8f3d 91a6 b9bc 91e4 43bd f84d a0bd
000002c0: ad65 febd 0f70 9d3c 4dad 173e d3ca b2bd
000002d0: f4a1 a33d 9eee ce3d 6648 193d b6fa 27bc
000002e0: d739 103e 54c5 bd3d 57c7 a83d 2506 9fbc
000002f0: 7783 a3bb c574 febc 4ab5 673c 8f6d e2bc
00000300: 700b 3e3d 5924 d33d 5f68 e2bb 9de6 8ebd
00000310: 3be4 27bd 86a5 02bd 143e 04bc df57 5a3d
00000320: 4339 b2bd 4eb7 eabc 0f83 273e df2b c93d
00000330: 7f81 1e3d d1eb 3abe 0a51 28be 9215 64be
00000340: a6ea 72bd 3e96 6f3d 3dd6 ee3d c019 363d
00000350: 7f7d 85bd 07ff 99bd efe9 0a3d 9b17 8b3d
00000360: c376 11bd af6e 37bd a195 463d 1917 85bd
00000370: bc94 d9bd 2e84 723d 604e 09be 503a 55bd
00000380: ecb7 d2bd b36c ed3d b590 8a3d 73b5 e63c
00000390: e3ed 1bbe fd14 9abd 2f29 cbbd 7bb5 be3d
000003a0: 6c9b bd3d 7b3c da3d 1bf0 1d3e 6cfc b73c
000003b0: f9bc 04bd eacc 49be 00b4 10bd 836c 04be
000003c0: 5a0e 303d 6d5e 0fbe e968 0fbc a615 cebd
000003d0: 3091 26bd dd2b 1ebe 40dc a1bd ba98 fb3c
000003e0: 2c89 16bd da4e b13d a1d4 acbc 9a79 febd
000003f0: c984 babb 0ce8 49bd 69ad 18bd 5b3e 44be
0.11222628 0.11255941 -0.046749398 0.02382412 -0.03561301 0.026407834 -0.10469793 0.15800585
0.20038208 -0.14175662 0.18406561 0.07532098 0.097400784 -0.0052003125 0.087069914 -0.017800802
0.05541244 0.05110424 -0.083099805 0.049505174 -0.061132405 0.010719461 -0.06794859 0.12257396
-0.10857272 -0.051990356 -0.035610776 -0.069086574 -0.011128431 -0.1507906 0.12946106 -0.16266425
0.12973407 0.0052232156 -0.05831457 0.04141329 0.0776951 0.02621041 0.06639767 -0.07621599
-0.0024577917 -0.05173126 0.04454604 0.23027527 0.07508911 -0.10834141 0.08461574 0.057114977
0.18434754 -0.14120007 -0.16983373 -0.088855386 -0.12491272 0.109734006 0.028999103 0.04103936
0.029394988 -0.08695797 0.11619643 -0.061703213 0.023188839 -0.014200166 0.057252225 0.033555593
0.006662775 -0.028350016 0.1255197 -0.11761511 -0.06629227 -0.022949563 0.078402154 0.08461139
0.14418924 -0.113750085 -0.11640161 -0.10605176 -0.11800767 0.07059958 0.053185217 0.10976716
-0.06725824 -0.09959167 0.105828226 -0.11808729 0.08074162 -0.049190577 0.17029747 -0.19774625
-0.16477948 0.10612472 -0.013210968 -0.08882916 0.06603935 0.08440171 -0.03400763 -0.014869161
0.077282354 -0.04006639 0.0014883202 -0.046646994 -0.12879868 -0.013773867 -0.061047107 -0.109882034
0.014324377 -0.05588956 -0.13617119 -0.1291963 -0.036029812 -0.12810466 0.18861553 0.041675217
0.043356497 -0.13102688 -0.0337564 0.060321882 0.018049246 -0.08724232 -0.07051965 -0.10329411
-0.024357801 -0.024191404 -0.10910004 -0.1408907 -0.14088194 -0.059554268 -0.07886688 -0.083157755
0.22187959 -0.067390986 0.24972898 0.0048428443 -0.04119131 0.12520364 -0.03041224 -0.07091596
-0.046903137 -0.16225499 0.002618636 0.023708606 0.10060167 -0.128283 0.063291654 -0.07891405
0.034293793 0.048407253 0.094968766 0.13647954 0.118631594 -0.1383775 0.017539188 -0.07897006
-0.01923175 -0.12766391 0.09678997 -0.14269125 0.049839918 0.05212736 0.0677891 -0.046041165
0.06360979 0.05178861 0.03298309 -0.17156501 0.042577446 -0.018552791 -0.08943954 0.2042843
0.10705652 -0.13610828 -0.048568435 0.007797766 0.07028234 -0.022662433 -0.0478254 -0.07827371
-0.12421737 0.019218473 0.14812203 -0.08730092 0.079898745 0.10104106 0.03742256 -0.010252645
0.14084564 0.09266153 0.08241146 -0.01941211 -0.004990037 -0.03106154 0.014142344 -0.027640132
0.046397626 0.10309667 -0.0069094147 -0.0697758 -0.040989142 -0.031896137 -0.008071441 0.053306457
-0.08702328 -0.02865186 0.16358589 0.09822821 0.038697716 -0.1825402 -0.16437164 -0.22273853
-0.05930581 0.05849289 0.116619565 0.04445815 -0.06518077 -0.07519346 0.033914503 0.06791612
-0.03551365 -0.04478329 0.04848254 -0.06498546 -0.10624072 0.059208088 -0.13408804 -0.052057564
-0.102889866 0.11592998 0.06765882 0.028162694 -0.15227465 -0.075235344 -0.099199645 0.093119584
0.0925816 0.10656067 0.15423624 0.022459231 -0.03240678 -0.19707075 -0.03532791 -0.12932019
0.042982437 -0.14000864 -0.00875304 -0.10062723 -0.040665805 -0.1544642 -0.079033375 0.030712474
-0.03675191 0.08657618 -0.021097483 -0.124255374 -0.0056920988 -0.049293563 -0.03727475 -0.19164412

net.0.bias f4 [256]
00000000: b45a 93bc 4528 153e dc8a 36be b416 2dbe
00000010: 0709 1e3d e4b0 86bd 9aa9 8d3d 612f 423d
00000020: e53e 573c b1f5 823d 1233 4e3e 78e7 903c
00000030: 9001 f23d 19f5 29be f285 233e 35e8 18bd
00000040: b0ac 633d f252 17be 2459 d6bd 5b08 fabd
00000050: 54d5 aa3d 0c06 e1bc 7cad 20be 3fa5 e13d
00000060: 6cf4 d23b 244a 3c3e 4a8f 3b3d 5fa5 933d
00000070: 9524 1c3e 6c7c 05be 0cd0 203e b824 65bd
00000080: ef4f 313d cd92 03be 5968 e0bd cb4c bc3d
00000090: 4b0c 84bd 0cf7 bbba 14b1 ee3d 0324 363e
000000a0: dfa4 43be 15dc c3bb 2b98 a23d 152b 633e
000000b0: 3730 ac3a 9142 3d3d 3ef5 bfbd a78e 663d
000000c0: 5986 673d b24e e8bc 8833 663c dbfc 15be
000000d0: b6da 953c 8d0d 8ebd ec76 d63d 2f42 1a3e
000000e0: bdc6 e43d 68e3 39be 5a04 fd3c 70a3 bb3c
000000f0: d2ff 5d3e ce2a a13d c6ca 11be f889 12be
00000100: b43c 19be 12d3 85bd ef17 babd 9853 a73d
00000110: 5f50 c2bd 475f bfbd 34c0 bb3b 08ab 04bd
00000120: 069e 323e 3095 4f3e 616e 8ebd b8c6 e63d
00000130: 8d7f db3c 8d4b e43d 14df f0bd 8635 05bd
00000140: 2c8b c3bc 1e7c 843d ebff 063e 3069 0f3d
00000150: 6ec0 383d 86f3 2ebe 076b 97bd 4790 f5bd
00000160: c272 70be 4250 2a3e 8ed0 cdbd 26fd acbd
00000170: 11f4 11be 34bf d13c 358d 8bbd 7acc 02be
00000180: 7d3e ecbd df1e ae3c 9e3c f93c 92eb 00be
00000190: a3f7 05be f840 3fbd 35c1 d53d 8dd1 a23d
000001a0: 3810 133d 9c67 89bc 0871 b7bd f4ef ac3c
000001b0: d9a3 64bd 9d3f ae3c cbee 57bd bc8e a33d
000001c0: 068c 633d 4acb 173e a071 f53d b2ee 54bd
000001d0: ae49 313d f914 10be 23ab 0bbe 1094 1f3e
000001e0: 05d6 2a3d 1884 d9bc 8d00 b43d 3395 673d
000001f0: 6a48 093e f5d4 623d 5621 c8bc 623d 0cbe
00000200: c79a 33be e498 823e adf3 f33d 7418 0dbe
00000210: 5c27 e73d 959b 24be f999 e23d 45f9 e53d
00000220: 8820 a03d 0f90 e83d fe50 f5bb 8749 2ebd
00000230: e482 063c 4c46 0a3e 6710 4c3e 9527 2f3d
00000240: 8199 1b3e a5aa f1bd 0e37 e6bc ffca 913d
00000250: 0ea4 163c 972c e03d 66da 06be 5587 83bd
00000260: 3676 9b3d 20ee 9d3c e76d d8bd eeb5 903d
00000270: 9332 1e3d 391a 3f3d 7b3d ec3d fb8c 6fbd
00000280: a027 0fbe 3776 fdbd a9b9 3e3e 8b79 7fbd
00000290: 77fc 533e c771 4abc e407 063d 6cab 243e
000002a0: ef58 fcbd ff68 3abe 4823 d73c 82f4 c9bd
000002b0: 1e38 a43d e444 953d dca7 c43d 1d96 4c3d
000002c0: 9412 19be 294a 38be 1153 e1bd 3ad5 2c3e
000002d0: c3ff ccbc f98b bb3b d4ef 4cbc c658 96bd
000002e0: f709 e93d 5b25 b0bc e41e a0bd 0903 623e
000002f0: 082b 233e 0bfc 003e 543f e13d 6eb4 11be
00000300: f200 ec3d 9c40 6dbd 4f40 c73c 57b5 f43d
00000310: f81c 723c 8ef7 373e 69e7 963b 7e28 c73d
00000320: c0fe b53c 8980 28be ea9c 67bd c037 b7bd
00000330: c741 063d 97d9 4cbe 7876 51be 350f 223d
00000340: 19d2 0cbe ffcb 26bd 5d58 0abd ba4a aa3d
00000350: a6bd 383e 3f65 933d d159 a9bd 6478 193e
00000360: d434 4c3e 716d 18bd b7db c03d 8113 943d
00000370: 5f42 3cbe 29fc dabc fe23 f1bd db57 e23d
00000380: 00ce 093e aa35 2abe f848 80bd 4585 6ebd
00000390: 69d5 2d3e 4637 8fbd 013f 4c3d df4a 7c3b
000003a0: aa91 72bd 003d 62bd b064 2ebd f83b 92bd
000003b0: b6d0 f6bd 1878 733d 93ae a2bc b7de 93bc
000003c0: 874d e13d aec7 d13d 2fa8 21bd 021b b5bc
000003d0: fa9b 42be 14fd f1bd ebf5 02bc 7f09 88bd
000003e0: 337b 603d baca acbd 10ce 5dbd d2d8 513c
000003f0: 8c4d 393e 02c3 023e d7a4 f1bd 2044 1dbd
-0.017987587 0.14566143 -0.17826408 -0.16903192 0.038582828 -0.06576708 0.069171146 0.047408465
0.013137554 0.06394518 0.2013667 0.017688498 0.11816704 -0.16597404 0.15969065 -0.037330825
0.05558461 -0.14777735 -0.10466221 -0.12208625 0.0834147 -0.027468704 -0.15691179 0.11017846
0.0064378288 0.18387657 0.045790948 0.072092764 0.1524833 -0.13035744 0.15704364 -0.05594322
0.04328912 -0.12848969 -0.10957403 0.091943346 -0.06447657 -0.0014340593 0.11654869 0.17787175
-0.19105862 -0.0059771636 0.0793918 0.22184403 0.0013136928 0.04620606 -0.09372948 0.056288388
0.05652461 -0.028357837 0.014050372 -0.14647238 0.018292766 -0.06936178 0.10471901 0.1506431
0.11170719 -0.18153155 0.030885864 0.022905082 0.21679619 0.078694925 -0.14237508 -0.14310443
-0.14964563 -0.06534399 -0.09086596 0.08170241 -0.09487986 -0.093443446 0.0057296995 -0.03238967
0.17443094 0.20271754 -0.06954647 0.11268371 0.02679422 0.11147223 -0.11761299 -0.032521747
-0.023870073 0.06468986 0.13183562 0.035012424 0.04510539 -0.17085084 -0.07393461 -0.11990409
-0.23481277 0.16632178 -0.10049544 -0.08446722 -0.1425326 0.025603868 -0.068140425 -0.12773314
-0.11535356 0.021254955 0.030424412 -0.12589863 -0.13082747 -0.04669282 0.10437242 0.07950125
0.03590414 -0.016773038 -0.08957106 0.021110512 -0.05582032 0.021270568 -0.052717965 0.07986209
0.05555346 0.14823642 0.11984563 -0.05198545 0.043283157 -0.140705 -0.13639502 0.15583825
0.04170801 -0.026552245 0.087891676 0.05653877 0.1340653 0.055378873 -0.024429958 -0.1369529
-0.17539512 0.2550727 0.11911712 -0.1377886 0.11286804 -0.16074975 0.11064524 0.11229185
0.07818705 0.11355602 -0.0074864617 -0.04255059 0.008209918 0.13503379 0.19928132 0.042762358
0.15195276 -0.11800126 -0.028102424 0.071187966 0.009194387 0.10946005 -0.1316925 -0.06422297
0.07590906 0.019278586 -0.10567837 0.0706595 0.03862245 0.046655867 0.11535164 -0.05848406
-0.1397996 -0.12376063 0.18625511 -0.06237177 0.20701776 -0.012356228 0.03272237 0.16081017
-0.1232165 -0.18204115 0.02626194 -0.09861089 0.08018516 0.072885305 0.09602329 0.049947847
-0.14948493 -0.1799704 -0.11002172 0.16878214 -0.0250243 0.005723473 -0.012508351 -0.07341151
0.11378854 -0.021502187 -0.07818392 0.2207147 0.15934384 0.12596147 0.10998407 -0.14228985
0.11523618 -0.057922944 0.024322657 0.1194865 0.0147774145 0.17965528 0.004605223 0.0972452
0.0222162 -0.16455282 -0.05654613 -0.0894618 0.032777574 -0.20004879 -0.20455348 0.039565284
-0.13752021 -0.04072189 -0.033775676 0.08315034 0.18041095 0.071970455 -0.08269084 0.14987332
0.19942027 -0.037213746 0.09416907 0.072302826 -0.18384694 -0.026731567 -0.11774443 0.11051913
0.13457489 -0.16622034 -0.06263918 -0.058232564 0.16975941 -0.069929644 0.049864773 0.0038496775
-0.059220947 -0.055233955 -0.04257649 -0.071403444 -0.12051527 0.059440702 -0.019858634 -0.018050535
0.11001115 0.10243164 -0.039467033 -0.022107605 -0.19004813 -0.11815849 -0.007993202 -0.06642436
0.054804992 -0.084371045 -0.054151595 0.012808042 0.18095988 0.12769702 -0.11799019 -0.038395047

net.2.weight f4 [256, 256]
00000000: ff03 ba3c 1d67 61bc ad11 623d 1a30 10bd
00000010: f1ea 87bc af78 b9bd 98ef 2fbd 8b62 8fbd
00000020: 829c a63b 2b8c 01be 22db a0bd 7463 fdbb
00000030: b777 d23d df00 2b3c 1db2 903c a64c 2abd
00000040: 03ce 2a3d 0351 cbbc a35e 3fbd 3479 603d
00000050: aa72 1abd 06ca 50bc 90ee 8d3d b479 da3b
00000060: 0f69 6e3c 58cd 123d 66a3 12be 5d8e 85bc
00000070: e91a 523d fdb0 0dbc 264a adbc ec81 8dbb
00000080: df5e b2bc 6cb2 b53d 4791 673b 4ce0 dc3c
00000090: d8be 983d 0fd7 9f3d b4ac 993c 1957 133d
000000a0: f7e7 29bc a4d5 04bc e723 56bd 4f37 a0bd
000000b0: d535 de3d 8776 79bd bfbc 133b 200a 15bd
000000c0: 9bfc 98bc d0b7 bebd a459 d5bd a533 fc3c
000000d0: 882e 7ebd 5957 87bc 42ae 06bc 5efe d4bc
000000e0: 09bc 80bd f0ec dbbc 5210 0a3c 6e55 4b3d
000000f0: 32c1 89bd 25d1 f2bb ddf1 b03c fcdd 9b3d
00000100: 27ba 133d d0ce 81bb a7df 8d3d 6168 98bd
00000110: 0787 8bbd 0105 c43c 3b34 d0bd d460 d6bc
00000120: 1b71 bfbd 6bcf 8a3d 2360 8abc b5ab 18bd
00000130: 2f2e 8ebd 2725 73bd d5e7 b63d 6524 73bc
00000140: c2e9 a23d 1b50 be3d 469d a43c 197d b23d
00000150: 2d6d a03c 5535 ab3b 4af9 993d 3ec2 1d3d
00000160: 8b67 cb3b 84e3 a13c b95a a3bd 8696 a7bc
00000170: 6f24 f63d 0b6a c83d e0a5 3bbd 4eae c33d
00000180: 5ed4 44bc 59ce 00bc 1f1d 9e3c 1381 4cbd
00000190: 4bdd 9b3d 3f3d c73b 494f 06be bffc 973d
000001a0: b560 84bc ea58 633c 703d 923d acd8 e93c
000001b0: 0f70 423c 9656 013d ae52 5fbc cc02 2abd
000001c0: 2c41 843b 1a5a d139 31af abbd 17ca 51bd
000001d0: 52c9 a03d 7eb9 3abd accb 603d e6ca 103b
000001e0: 1b74 30bd 1327 17bd 1b2f 85bc 6650 3d3d
000001f0: f61e 49bd 7fa8 22bd b77f 663d 9237 2a3d
00000200: d372 1dbd dd07 643d 675f 02bc 7cda f33d
00000210: 94a6 89bd 620f 47bd 2aeb c6bb 60d2 063d
00000220: 5ad1 84bd 0be2 363d 5b78 cc3c 7d7c ae3d
00000230: 5f25 e8bd c328 c4bd ab4b adbb 7013 ac3c
00000240: 9e75 2fbc 8829 17bd 3c9a 4e3d 27b4 783d
00000250: ec2c 93bc 91a4 1bbb 8ba1 61bd 7dd1 1e3d
00000260: 0e65 143c 4d83 c0bc 282d 93bd 8e44 2bbd
00000270: acc4 23bc a597 1abd fe40 d8ba 12f4 a9bc
00000280: 7cf0 893d 2e65 a53c 8f94 093b 1af9 363c
00000290: 5b4b 1bbc 0148 93bd fdb4 2b3d 76e2 563d
000002a0: 0e3c 1bbd c892 333d 1a14 f4bc 849d 82bc
000002b0: 3bd2 62bc dc56 973d 87a1 e7bb 752d 063d
000002c0: 39d0 df3c e672 0b3d 354c 7bbd a917 5d3d
000002d0: d9f1 c93c 2728 aa3d b8dc 77bd 5bb1 113d
000002e0: f227 8ebc c04b 57bd c0e3 4b3d 4a10 233d
000002f0: 82c2 18bd 9982 62bd 439a 8c3d fa5e 21bd
00000300: 7743 0e3d 5c03 b3bd ef64 56bd 7a5a 56bb
00000310: 1fa9 8ebb de78 963d 0b78 a9b9 3920 983d
00000320: 178d da3d 7ac5 55bd 536a 163c a514 0e3c
00000330: 61d7 d3bd 2b91 1c3d dd9d 73bb 72e7 a7bd
00000340: d46f 67bc 61e0 243d 85c9 2bb9 df55 533d
00000350: eeb9 ef3b e050 263d f2a4 a2bc 18e9 e93c
00000360: 9c7f 293d ad74 19bb 8fc6 6cbd a036 1b3d
00000370: 6dd1 e7bc 6043 053d 74da 04bd 941b ed3c
00000380: 779e e9bc d3be b8bb 2207 b3bd 2c98 803d
00000390: 49bb b8bd ea3a 5a3d 3bda 8a3d d6be b3bd
000003a0: 6fe2 94bd cfec 313d 5614 9e3b 70b5 b5bc
000003b0: 4710 5a3d bf80 2dbd 74c3 2d3c ec42 023a
000003c0: 6003 f73c a0df aebc 26d8 bc3c c6ae ecbb
000003d0: 2242 ab3b 5ed3 9ebc 4aff 303d 36d0 5a3d
000003e0: 336b e7bb 8ae6 14bd 882b 23bd a702 85bd
000003f0: 8bf4 783c 31ab bf3c b44d fabc e305 5b3d
0.022706984 -0.013757494 0.05519264 -0.035202123 -0.016591521 -0.09056222 -0.042953104 -0.070012175
0.005084575 -0.12651126 -0.07854296 -0.007732803 0.1027674 0.010437219 0.017663056 -0.041577004
0.041700374 -0.024818903 -0.046721112 0.05480309 -0.03770701 -0.012743479 0.06930268 0.00666734
0.014551415 0.035840362 -0.14320144 -0.016303236 0.051295195 -0.008648154 -0.02115352 -0.0043184664
-0.021773754 0.08871922 0.0035334395 0.026962422 0.074582756 0.07804691 0.01875911 0.035971735
-0.010370246 -0.0081075765 -0.052280333 -0.07823049 0.108501114 -0.060904052 0.0022542921 -0.03638661
-0.01867514 -0.09312403 -0.10417488 0.030786345 -0.062056094 -0.016521143 -0.008220257 -0.026000198
-0.06285865 -0.026846379 0.008426743 0.04964202 -0.06726302 -0.007410186 0.021599704 0.076106995
0.0360662 -0.0039614215 0.06927424 -0.07441784 -0.06812864 0.023928167 -0.10166212 -0.026169218
-0.09347745 0.06777843 -0.016891545 -0.037273128 -0.069424026 -0.059361603 0.08930937 -0.01484022
0.07954742 0.09292623 0.020094525 0.08715267 0.01958331 0.0052248635 0.07518251 0.038515322
0.0062074116 0.019761808 -0.07976288 -0.020457517 0.12018668 0.09785851 -0.045812488 0.0955473
-0.012013523 -0.007861697 0.019300995 -0.049927782 0.07610568 0.006080299 -0.13116182 0.07421254
-0.016159395 0.013876179 0.071406245 0.0285457 0.011867537 0.031576715 -0.013630552 -0.041506574
0.0040360894 0.00039930717 -0.083830245 -0.05121812 0.07850899 -0.045587055 0.054881737 0.0022093593
-0.043079477 -0.0369025 -0.016257813 0.046219252 -0.049101792 -0.03971147 0.056274142 0.041556902
-0.038439583 0.05567156 -0.007957316 0.11906907 -0.067212254 -0.048598655 -0.006070514 0.032915473
-0.06485243 0.044649165 0.024959734 0.08519838 -0.11335253 -0.09578087 -0.0052885613 0.021005362
-0.0107091945 -0.03690484 0.050440058 0.06071868 -0.017965756 -0.0023749212 -0.0550857 0.038774002
0.009057296 -0.02350011 -0.07186347 -0.041813426 -0.009995621 -0.037742276 -0.0016498861 -0.020746265
0.06735322 0.020189848 0.002099309 0.011167789 -0.009478415 -0.07191468 0.04192065 0.052462064
-0.03789907 0.043841153 -0.029794741 -0.01594425 -0.013844068 0.07389614 -0.007068816 0.032758195
0.027320968 0.034045123 -0.061351974 0.053977642 0.024651455 0.0830844 -0.06051323 0.03556953
-0.017353032 -0.052562475 0.049777746 0.039810456 -0.037294872 -0.05530033 0.068653606 -0.039397217
0.03473231 -0.08740875 -0.05234235 -0.0032707737 -0.004353657 0.07347272 -0.0003232363 0.07428021
0.10671442 -0.05219028 0.009180623 0.008671914 -0.10343815 0.03822438 -0.0037172951 -0.081984416
-0.014125783 0.040253047 -0.00016382903 0.051595565 0.0073158657 0.040604472 -0.019854043 0.02855353
0.041381463 -0.0023415491 -0.057806548 0.03789389 -0.028298104 0.032534957 -0.032434896 0.028943814
-0.028517945 -0.0056379824 -0.08741595 0.062790245 -0.09020097 0.05327884 0.067799054 -0.087766334
-0.07269751 0.04343873 0.0048242016 -0.022181243 0.05323818 -0.04235911 0.010605682 0.00049690786
0.030152977 -0.021346867 0.023052286 -0.007222983 0.0052263895 -0.019387897 0.043212213 0.05342122
-0.0070623397 -0.03635267 -0.039836437 -0.064946465 0.015195022 0.02339706 -0.03055463 0.05347241

net.2.bias f4 [256]
00000000: abf9 efbc 5363 17bd 2797 45bc f5e1 a3bd
00000010: ecc1 10bd c39d af3c 1f8b 36bc 7ff7 08be
00000020: a275 393d eb74 8e3c bc34 2abd cf24 5d3d
00000030: 3fd4 cabd 34b0 393c a517 6a3d 663d 193d
00000040: 65e0 6bbc 601b 7cbc 98b6 c3bc c858 8b3d
00000050: 4af2 f7bc a290 3ebc 570f 35bb f378 7b3d
00000060: a9dd 343d b07d 0ebc 91f3 27bc 85b5 253d
00000070: e3da 9ebc 9ff0 0abe d073 65bd f7a2 2e3d
00000080: 1f31 adbc dc64 c73c 06a4 89be 7492 c4bc
00000090: d83f ffbc 3593 91bd a549 49bb d479 1fbd
000000a0: 50a2 ac3c ed23 ccbd 109a 90bd 53c0 d93c
000000b0: 3661 a23c 1887 f43b b611 96bc d3c1 893c
000000c0: 8f8c ab3c dd27 8dbd fcf3 363d 6544 09bc
000000d0: b97f ba3b a923 b83c bba1 253d 64a9 f43c
000000e0: afc5 843d 69ef e3bc ded2 543d 2169 9bbd
000000f0: df70 10bd 7c7f eebb 14c7 29bc a1cf 993b
00000100: 51e3 cabd 2d2d 843d b98c e6bb 43cb 78bd
00000110: f1b7 153d 5146 623c 9dc8 47be c756 4abd
00000120: d8f8 f0bc f699 803d dfe3 44bc 7b54 22bd
00000130: 781b 2ebd f0c5 953c c876 0239 c598 e5bc
00000140: c472 2fbd 7a46 aabd 8edd 1fbd 0855 2e3c
00000150: 691f 153d 268e 34bd 4694 e5bb e3b5 2d3d
00000160: 4d16 b1bd c4bb 243d 5327 ff3c 8f89 f13c
00000170: 5a20 b9bc 5e07 c73b b205 eb3a 7e4c 7a3c
00000180: fb8a 7cbe 0423 1dbc bd68 4a3d 4e8d 903d
00000190: d112 0f3d e97b 713d e897 38bd 4e0d 2e3d
000001a0: 2997 063b 295e 00bd 4a86 a0bc c62f 6a3d
000001b0: b103 ddbc 9134 873d 48c7 d23c d4ec a4bc
000001c0: 2e9e c1bc 16e1 913b bfc2 77bb 871e 06bd
000001d0: 7dc1 4cbe ecdb fd3c 3f2d b93c 03df bcbc
000001e0: 1254 7c3d 35b6 fb3c cd02 813d fcef 1bbd
000001f0: 11d0 663d eca9 da3c 9500 043d 7044 11bd
00000200: 1d81 18bc b1d4 843c c13c 1dbe 8dda 6ebe
00000210: cd79 3a3d f7a6 8b3d 859a bdbd 3c28 703c
00000220: 1840 00bc f37d 3d3c 8126 3abe 516c a03d
00000230: c9da 92bc a026 10bd 9dd1 47bc 6c22 2e3b
00000240: 53d4 0e3d e82a 81bd 8a51 373d f87d 1ebe
00000250: a6a8 02bd 3c1e 833c 0c42 113d 45b8 ebbd
00000260: a8da d1bd 21af 553c 32de e53c 2bdc 26bd
00000270: da4e 74bd ed1d 473d ffe5 5abd e6b6 ac3c
00000280: d51b 03be f961 5ebd 244e 143d f26b 36bc
00000290: d343 77bd a553 773d 1abf a0bb 8b17 2c3d
000002a0: 3e0b 37bd c92a d23c 18e0 983c 9d2e e7bc
000002b0: 6de8 3fbe be42 803c 3f68 30bd 5d21 3abd
000002c0: 0213 663d 9467 af3c a404 663d d032 1c3d
000002d0: 6d19 89bd 3e1f 8ebc 0191 823c deed 05bd
000002e0: b691 933d b0f9 023c 1e12 8fbc ebfe 453b
000002f0: e079 8dbd 9784 01bd 9b9d 4b3d 6cda 1b3d
00000300: 8477 07bd b286 e8bc 7620 3d3c 1a43 243d
00000310: 90d0 ffbc fd29 363c 6202 663d 5277 8abd
00000320: 105a ab3d 588f 333d 1360 2fbe 8def 233d
00000330: ed19 8d3d 4d4d 5f3d b387 33bd 9982 cd3c
00000340: 4fd7 0fbc df16 c13b 0173 9c3d 36f7 73bd
00000350: 021f 2bbd 66af a5bd 1bd2 bfbc a135 49bd
00000360: c04c 303c 4a91 e53c 5a77 1c3d ae0e 09bd
00000370: 5503 57bd cf55 313d 764f a6ba c9ca b73c
00000380: ebb1 4cbd bb72 4c3d bee2 8f3d 6f38 a1bb
00000390: b40d 50bd e9c4 10bd 8b7d 5cbd 3b6e 093d
000003a0: 0b7b d03c a89b 6d3d 3ddc 55be 928b 9d3c
000003b0: 5a5b e13c 2231 3abc 837e 293d ff9b a33a
000003c0: b208 993d 3b7d 0d3d a282 5eba 23af 66bc
000003d0: 2db6 5d3d abc2 92bc 1a4d 303d 3f07 593d
000003e0: f09e 2e3d 9c52 0a3d 6760 0dbe 07c3 a2bc
000003f0: 36b4 623d 6dd2 553d ddd4 a9bc 58ee 4abd
-0.029293856 -0.036959957 -0.012059963 -0.08002082 -0.03534119 0.021437531 -0.0111415675 -0.13375662
0.0452782 0.017389735 -0.041554198 0.05399018 -0.09903764 0.011333514 0.057151455 0.03741207
-0.014396762 -0.015387386 -0.023890778 0.06804043 -0.0302669 -0.011631163 -0.0027627551 0.061394643
0.044156704 -0.008696958 -0.010250942 0.040456314 -0.019391483 -0.13568352 -0.05601865 0.042635884
-0.021141587 0.024340086 -0.26882952 -0.023995616 -0.031158373 -0.07108156 -0.0030714062 -0.038934544
0.02107349 -0.0996779 -0.07060635 0.026580965 0.019821744 0.0074623935 -0.018318992 0.016816055
0.020941047 -0.06892369 0.044666275 -0.008378123 0.0056914953 0.022477942 0.04043744 0.029865928
0.06483018 -0.02782412 0.05195891 -0.07588411 -0.035263892 -0.007278381 -0.010362405 0.0046939407
-0.099066384 0.06453929 -0.0070358184 -0.06074072 0.036552373 0.01381071 -0.19510122 -0.049399164
-0.029415533 0.06279366 -0.012017219 -0.039631348 -0.042506665 0.01828286 0.00012442016 -0.028026948
-0.04283406 -0.083142236 -0.03902965 0.01064039 0.03640691 -0.044080876 -0.007006201 0.04240979
-0.08646832 0.04021813 0.031146681 0.029484538 -0.022598434 0.0060738763 0.0017930774 0.015277026
-0.24662392 -0.009590868 0.049416292 0.07058202 0.034930054 0.05895606 -0.045066744 0.042493157
0.0020536876 -0.031339798 -0.019595284 0.057174467 -0.0269793 0.06601823 0.02572979 -0.02013246
-0.023634996 0.004451881 -0.0037805287 -0.032743957 -0.19995685 0.030988656 0.022604583 -0.023055559
0.061603613 0.030726532 0.06299362 -0.038070664 0.05635077 0.026692353 0.032227118 -0.035465658
-0.009308127 0.0162147 -0.15355207 -0.23325558 0.045526315 0.068189554 -0.09257988 0.01465803
-0.007827781 0.011565673 -0.1817875 0.0783316 -0.01792659 -0.035193086 -0.012195972 0.002657081
0.034870457 -0.06307012 0.044755496 -0.15477741 -0.031899117 0.016005628 0.035463378 -0.11509756
-0.102467835 0.013042242 0.028060053 -0.040737312 -0.05964551 0.048612524 -0.053441998 0.021083307
-0.12803586 -0.054292653 0.036207333 -0.011134135 -0.060367417 0.060382504 -0.0049055936 0.04201464
-0.044688456 0.025655167 0.018661544 -0.02822047 -0.18741007 0.015656825 -0.043068167 -0.045441974
0.05617047 0.021411695 0.05615677 0.038134396 -0.06694303 -0.017348882 0.015938284 -0.03269755
0.072055265 0.0079941 -0.017464694 0.0030211757 -0.069080114 -0.03162059 0.04971085 0.0380501
-0.033072963 -0.02838454 0.011543384 0.040103056 -0.03122738 0.011118409 0.056154616 -0.0676104
0.083667874 0.043837875 -0.17126493 0.040023375 0.068897106 0.05451708 -0.043830585 0.025086688
-0.008779361 0.005892619 0.07639123 -0.05956193 -0.04177762 -0.08090095 -0.023415616 -0.04912341
0.010760486 0.02802338 0.03819976 -0.033461265 -0.052493412 0.043294724 -0.0012688476 0.022435563
-0.049974363 0.049914103 0.070256695 -0.0049200575 -0.05079432 -0.03534404 -0.053830665 0.03355239
0.025449296 0.058009773 -0.20884795 0.019231591 0.02750938 -0.011364253 0.041380417 0.0012482404
0.074723616 0.034543257 -0.0008488094 -0.014079842 0.054128814 -0.01791509 0.04304228 0.052985426
0.042632043 0.03377019 -0.13806306 -0.019868387 0.055347644 0.05220263 -0.020731384 -0.04954371

net.4.weight f4 [7, 256]
00000000: 1fe3 653d 7c27 5bbd 6e94 fe3d ee36 c8bd
00000010: 5afb 5fbc 9ccb 82bd 3055 39bd 2cfc 73bc
00000020: a993 0a3d 8152 0b3c 3eb6 993c 63bc 41bd
00000030: 5a67 383d 9743 2cbd 02b3 2f3d 9d36 07bd
00000040: 4edf b6bc ef79 253d 85a9 043c 0d3f 813d
00000050: 693b 0e3d 7711 563d de61 ef3b 3a67 5e3d
00000060: 0fe2 673d 1a9f a2bc 0b73 8cbc 670e 693c
00000070: 8780 4c3d ed0e 93be 3f62 0e3d a6e4 7fbd
00000080: 5d4c c83c c788 27bd 6781 ffbb 509e dbb9
00000090: 59e5 ccbc ee2c b4bc 65f6 443c bfbe 06bd
000000a0: 4acd 9fbc 96a6 4b3c f7b8 c23d 98cd 2e3d
000000b0: 89d8 ffbc b066 3cbd 706a 80bd 8c5a 2cbd
000000c0: 14a7 6bbd 7c1d f13c cbe5 303c a22f c9bd
000000d0: cfdb d9bb 8a56 443d 1857 54bd 1c0a 86bd
000000e0: e09f c83b 82b9 7dbc a5b3 9dbc 458e 8f3d
000000f0: 2f3e 603d fcfb 4f3d 3575 583d 28bc b8bd
00000100: 96da 9d3c f9fd 663c 6af8 6b3d 4b98 c7bc
00000110: 68e9 61bd 5100 233d 8999 3b3c e771 98bb
00000120: a7c7 ca3c 42fb 69bb 0ca7 1d3d 92ea 48bc
00000130: 5d58 05bd 81c2 89bd 07e1 5c3d c9a1 0abd
00000140: c8f0 d9bb bb3e e3bd 9210 013c 52e2 bebc
00000150: 7978 a3bc a44d b5bc eb54 203c 22d1 1e3d
00000160: 75b2 503c 452d e5bc 8c34 edba 13e7 05bc
00000170: 8fcd 083d 2795 6c3c df0a 9aba 0f60 0d3c
00000180: 9425 8dbf a730 0dbd 77f7 d33c 3931 80bd
00000190: fd18 58bd 8f4c 893d 5406 843d 238b 83bc
000001a0: 6062 71bd 9c94 71bd 17e7 1b3d 4f3c 8fbd
000001b0: 58b2 ae3b b938 97bd f39a 583d 2ebe 11bd
000001c0: 522f 8d3c 0fae f1ba 88bf fe3b 9650 e83a
000001d0: 19be cc3c 5592 4fbd 3f43 5a3d 69d5 74bd
000001e0: 8466 84bc 032a e3bb b006 8abd 7209 303d
000001f0: 56dc 1dbd f104 b63d ae1f 76bd 5b3e 54bd
00000200: 5532 9dbd 1dc5 d5bb d595 cdba 6d98 9fbc
00000210: 785d 3c3d f40e 03bc 2a0e 233d ea08 f33c
00000220: 9931 c8bc cff5 8ebc 7379 15bc be10 92bb
00000230: 1b90 07bd 3672 fc3c 5bb3 613a 01c2 dcbc
00000240: 74a3 1a3d 3730 18bd 8b16 643d f9bc 1ebd
00000250: 84e0 e2bc 480f a53a f11e 4a3d 7cee 0bba
00000260: d1b0 9bbc 0cfa 793d b4bf dfbb bb70 39bc
00000270: 6f7a 803d 6486 313c 7f0a 6bbc 7ab0 68bc
00000280: 117a 253d 4ac1 e63c cbbe 19bd 955f 5cbd
00000290: 62c3 64bc 4390 d0bc 58ca c4bc d389 0cbc
000002a0: 1160 373c 56a6 933b a524 4bbd c206 3c3d
000002b0: b49c 063c 8f04 49ba a5db 063c 8815 e73a
000002c0: a215 e03c 4e2e 243d f13f 70bc aac6 89bd
000002d0: 7bee 843d c133 0b3d e5d1 eb3c 3300 bd3b
000002e0: 672a 88ba 3fc1 eb3c 589d 2c3e fc05 b5bc
000002f0: eff1 213d 841d 2b3d ccc0 34bc 7953 b43c
00000300: ccf9 8b3c ed78 113d c501 7d3d 38df ca3c
00000310: 749f c6bb c64f 79bd d931 003d 88da d83c
00000320: ff53 84bd c45d 8c3d 14e4 cfbb 269e 7f3c
00000330: a737 b2bc da02 b9bc c23c 65bc a99b 85bd
00000340: a372 07bd 555d 0abd 58ae 3bbd c307 87bc
00000350: f718 33bc 41d5 b3bc 8995 273d 61fd b0bd
00000360: 2e6b 5dba 9412 1abd f0cc 633d d2f3 5bbc
00000370: 8cda 233e c697 493d 4870 27bd 752b 663d
00000380: 0342 50bd ed90 343c 9bac 2abd f4db 8e3c
00000390: fcb4 6abc f5c9 1f3d 0cbf 913c 0a08 29bd
000003a0: 7c64 393d 9f5b 09bc 24d6 773b b6fd 3fbd
000003b0: 3a35 3f3d 3824 0cbd 64f0 c63c 75d1 54bc
000003c0: dfbb debc 9813 28bd 47c4 863d 1cf3 903c
000003d0: 2e87 8b3c a491 32bd 18ba 873d 32d6 17bd
000003e0: 5557 dbbc 87e0 d63c 5905 7a3f 35fd 623d
000003f0: 0cd8 89bc 2f75 2a3d 8606 2e3d 8fde 17bc
0.056124803 -0.053504452 0.124306545 -0.09776102 -0.013670767 -0.06386492 -0.045247257 -0.014891665
0.033832226 0.008503557 0.018763658 -0.0472988 0.04502044 -0.042056646 0.042895325 -0.033011068
-0.022323277 0.040399488 0.008097057 0.06310854 0.034724627 0.05226275 0.007305368 0.054297663
0.05661207 -0.019851256 -0.0171447 0.014224625 0.04992726 -0.28722325 0.034761664 -0.062473916
0.024450475 -0.040901925 -0.0077974084 -0.00041888887 -0.025011705 -0.02199408 0.012021636 -0.032896753
-0.01950707 0.012429854 0.095079355 0.04267654 -0.031231182 -0.045996368 -0.06270301 -0.04207854
-0.057532385 0.029433005 0.010796974 -0.09823538 -0.0066485177 0.047934093 -0.05184087 -0.06544897
0.006122574 -0.015486123 -0.0192507 0.07009558 0.054746803 0.05077742 0.052846152 -0.09020263
0.019269269 0.014098638 0.057609953 -0.024364611 -0.055154234 0.039795224 0.01145018 -0.00465225
0.024753405 -0.003570274 0.038489386 -0.012262957 -0.032554973 -0.06726552 0.05392554 -0.033845697
-0.006651018 -0.11095949 0.007877486 -0.023301277 -0.019954907 -0.022131748 0.009785871 0.038773663
0.01273786 -0.027975688 -0.0018097325 -0.008172768 0.03339916 0.014439858 -0.0011752507 0.008628859
-1.1027093 -0.034470227 0.025874836 -0.062593885 -0.052758206 0.067040555 0.064465195 -0.016057556
-0.05893171 -0.058979616 0.03806218 -0.06993925 0.005331319 -0.07383866 0.052882146 -0.03558176
0.017234478 -0.0018438714 0.007774297 0.0017724212 0.02499299 -0.050676662 0.053286787 -0.059773836
-0.016162165 -0.0069324984 -0.06739557 0.042977758 -0.038540207 0.08887661 -0.060088806 -0.05181728
-0.07675616 -0.006523742 -0.0015684912 -0.019481862 0.045987576 -0.007999171 0.03980843 0.029667336
-0.024437713 -0.017451195 -0.009123194 -0.004457562 -0.033096414 0.030816179 0.0008609795 -0.026947977
0.037753537 -0.037155356 0.05568556 -0.038754437 -0.027694948 0.0012593055 0.049345914 -0.0005337966
-0.019005211 0.06102948 -0.0068282727 -0.011318381 0.06273352 0.010835264 -0.014345764 -0.014202232
0.040399615 0.02816834 -0.03753547 -0.05380209 -0.0139625985 -0.025459414 -0.024022266 -0.008577782
0.011192338 0.004505913 -0.049595494 0.045904882 0.008216072 -0.0007668221 0.008231078 0.0017630318
0.027354065 0.040083222 -0.014663682 -0.06727345 0.06490799 0.033984903 0.028786609 0.005767846
-0.0010388613 0.02877867 0.16856897 -0.02209758 0.039537366 0.041776195 -0.0110322945 0.02201246
0.017086886 0.035515714 0.061769266 0.024764642 -0.0060614888 -0.060867094 0.03129754 0.026471391
-0.064613335 0.06853822 -0.0063443277 0.01560167 -0.021755053 -0.022584368 -0.013991537 -0.065238304
-0.03306831 -0.033780415 -0.045820564 -0.016483193 -0.010931245 -0.021952273 0.040914092 -0.08642078
-0.0008446452 -0.037615374 0.055615366 -0.0134248305 0.16001338 0.049217008 -0.040878564 0.056193788
-0.050844204 0.011020881 -0.041668516 0.017438866 -0.014325377 0.03901096 0.017791294 -0.041267432
0.045261845 -0.008383661 0.0037816847 -0.046872817 0.04668162 -0.03421423 0.024284549 -0.012989392
-0.027189193 -0.04103431 0.06580406 0.017694049 0.017032232 -0.043595925 0.066272914 -0.037069507
-0.026775042 0.02623011 0.9766441 0.05541726 -0.016826652 0.04161566 0.04248669 -0.009269371

net.4.bias f4 [7]
00000000: 82e3 313d 3a9b 413d cc73 57bc 5405 f83b
00000010: be90 06bc 79ff 59bd 02b6 283d
0.04342986 0.047267176 -0.013150167 0.0075689945 -0.00821322 -0.053222153 0.0411892
