bc_out/bc_policy_best.pt (torch, 314062 bytes, 6 tensors)

net.0.weight f4 [256, 39]
0	0x3cbcdf00	0.023055553
1	0x3d3d0d96	0.046155535
2	0x3bed2e7a	0.0072382065
3	0x3c601926	0.013677871
4	0x3b86b89d	0.004111363
5	0xbd1eabb2	-0.03873796
6	0xbd6209e1	-0.055185203
7	0x3e14223d	0.14466186
8	0x3e81ad97	0.2532775
9	0xbdfbd656	-0.12296741
10	0x3e5dd5e9	0.21663631
11	0x3d15ad17	0.036542024
12	0x3e6706fe	0.22561261
13	0x3dc2d10f	0.09512531
14	0x3c1cc9bf	0.009569584
15	0x3d0c4e4a	0.03425435
16	0x3d160eed	0.036635328
17	0x3d272aad	0.040812183
18	0xbce7f4ce	-0.028314974
19	0x3d12fdc9	0.03588656
20	0xbdb0d391	-0.08634103
21	0x3c283ecc	0.010268878
22	0xbd8af274	-0.067845255
23	0x3e022d42	0.12712577
24	0xbd98c6eb	-0.074598156
25	0xbc0c8f13	-0.008579033
26	0x3d184990	0.03717953
27	0xbd45be48	-0.04827717
28	0x3d459085	0.048233528
29	0xbd03dc3a	-0.032192446
30	0x3df4126a	0.11917575
31	0xbdac2ee4	-0.08407381
32	0x3cbda835	0.023151496
33	0xba965bc6	-0.0011471442
34	0xbd7befbb	-0.06150792
35	0x3d881c59	0.06646032
36	0x39cfd238	0.00039638742
37	0x3d0bb7fb	0.034111004
38	0xbb8bb5ab	-0.0042636
39	0xbdbc6d79	-0.09200568
40	0x3d0e5595	0.034749586
41	0xbd215305	-0.039385814
42	0x3d500b19	0.050791834
43	0x3e2e7305	0.17036064
44	0x3db520ea	0.088441685
45	0xbd89b324	-0.067236215
46	0x3e0135a9	0.12618126
47	0x3d5dd71b	0.05416022
48	0x3dfae68f	0.12251007
49	0xbd96e2aa	-0.073674515
50	0xbe5c33dc	-0.21504158
51	0xbd5399a5	-0.0516602
52	0xbe14d80e	-0.14535543
53	0x3e12da64	0.14341122
54	0xbcdc2abe	-0.02687585
55	0x3d1eefc2	0.03880287
56	0x3c2d7030	0.01058583
57	0xbc369373	-0.011143553
58	0x3dcf4c95	0.10122029
59	0xbdb58fa6	-0.088652894
60	0x3b21933a	0.0024654404
61	0xbd2a9429	-0.041645203
62	0x3cceb145	0.025231013
63	0xbd290522	-0.04126466
64	0xbcdb70eb	-0.026787242
65	0xbd9dfa1f	-0.077137224
66	0x3d64cb1e	0.05585777
67	0xbd6cf9f9	-0.05785558
68	0x3cffa9e2	0.031208936
69	0xbce286cc	-0.027652167
70	0x3e1b8964	0.15189129
71	0xbc4af738	-0.012388043
72	0x3dd88a4b	0.10573252
73	0xbe1340af	-0.14380144
74	0xbd2940d8	-0.041321605
75	0xbd8ff3b3	-0.07028904
76	0xbd481b6a	-0.04885427
77	0x3cf5aeb1	0.029990526
78	0x3d2e4131	0.04254264
79	0x3dd2390a	0.102647856
80	0xbd9adc1b	-0.07561513
81	0xbcb58d5e	-0.022162136
82	0x3d5c2bf7	0.053752866
83	0xbd3650da	-0.0445107
84	0x3d313423	0.043262612
85	0xbe052ee0	-0.13006163
86	0x3e4b8504	0.1987496
87	0xbe43566f	-0.1907594
88	0xbe0d0bdf	-0.1377406
89	0x3df0848c	0.11744031
90	0xb87e9e40	-6.07057e-05
91	0xbd3ecd58	-0.04658255
92	0x3dd51ed3	0.1040627
93	0x3ce1fd9a	0.027586747
94	0xbd803225	-0.06259564
95	0xbc5a05b2	-0.013307022
96	0x3d959d03	0.07305338
97	0xbd809475	-0.06278316
98	0xbd80df6f	-0.062926166
99	0xbd489c2c	-0.048977062
100	0xbddff304	-0.109350234
101	0xbd2007ed	-0.03907006
102	0x3d525149	0.05134705
103	0xbd94f52b	-0.072733246
104	0x3ccb5c6c	0.024824344
105	0xbdae0668	-0.08497316
106	0xbde5fc7e	-0.112298
107	0xbe1b14eb	-0.15144698
108	0xbdb88a95	-0.090108074
109	0xbdbc956d	-0.09208188
110	0x3da8732f	0.082250945
111	0x3d0a7f0a	0.03381256
112	0xbc15ab45	-0.009135072
113	0xbd75e9b0	-0.060037315
114	0xbc6b7378	-0.014370792
115	0xbc53c3dd	-0.012925115
116	0x3ab41f2c	0.00137422
117	0xbdc19b59	-0.09453458
118	0xbc5401e0	-0.0129399
119	0xbdbfdaf7	-0.09367936
120	0xba2689e4	-0.0006352945
121	0xbd8c2031	-0.068420775
122	0x3ab8528e	0.0014062689
123	0xbdf81978	-0.12114233
124	0xbe01ca08	-0.12674725
125	0xbd986fec	-0.074432224
126	0xbdff80fa	-0.12475772
127	0xbddf3863	-0.10899427
128	0x3e6b7e5f	0.22997425
129	0xbdbd2287	-0.09235101
130	0x3e3df2ea	0.18549696
131	0xbc3e376f	-0.011609896
132	0xbd5a5037	-0.053299155
133	0x3e025138	0.12726295
134	0x3c2e4f6b	0.010639052
135	0xbc339194	-0.0109600015
136	0xbd4cfcee	-0.0500459
137	0xbdc931fc	-0.09823987
138	0x3d901dab	0.07036909
139	0x3c6dfa56	0.014525017
140	0x3df436bc	0.11924502
141	0xbd93d2ad	-0.072179176
142	0x3cb2740d	0.021783853
143	0xbd80e63d	-0.062939145
144	0xbd59fa79	-0.053217385
145	0xbcef0628	-0.02917774
146	0x3d9f2c99	0.07772178
147	0x3dc38743	0.095472835
148	0x3e1acdd2	0.15117577
149	0xbdab1c28	-0.0835498
150	0xbb934076	-0.0044937683
151	0xbd98d31d	-0.07462142
152	0xbd46c9b3	-0.0485322
153	0xbdbbff9e	-0.091796145
154	0x3da06da1	0.0783341
155	0xbd8e9dcc	-0.06963691
156	0x3d299c70	0.041408956
157	0x3c98c21a	0.018647242
158	0x3d2394a0	0.03993666
159	0xbd89a44d	-0.06720791
160	0x3ce67e7b	0.028136482
161	0x3d82b08c	0.0638133
162	0x3c49c4af	0.012314959
163	0xbe3f33af	-0.1867206
164	0x3d82e0f9	0.063905664
165	0x3d6c0507	0.057621982
166	0xbe17010f	-0.14746498
167	0x3e56bb3a	0.20969859
168	0x3d82e544	0.06391385
169	0xbe32b255	-0.17450841
170	0xbc945600	-0.018107414
171	0x3ca229f2	0.019795392
172	0x3d684e90	0.056715548
173	0xbd52af98	-0.05143699
174	0xbbcceded	-0.006253949
175	0xbcea7054	-0.028618015
176	0xbdd089b5	-0.101825155
177	0x3d2e349f	0.042530652
178	0x3dbc30b3	0.09188976
179	0xbdd44e23	-0.10366466
180	0x3bda7c47	0.006667647
181	0x3c989ff2	0.018630955
182	0xbd2891f5	-0.04115482
183	0xbd250142	-0.040284403
184	0x3d989fe0	0.07452369
185	0x3e18b1cf	0.14911579
186	0x3d8d1aeb	0.068899
187	0xbdb1c208	-0.08679587
188	0xbccce72d	-0.025012577
189	0xbb2043b7	-0.0024454424
190	0xbd1311e7	-0.035905745
191	0xbd69903b	-0.057022315
192	0x3d8295bc	0.06376216
193	0x3d45e7c7	0.048316743
194	0xbd0b1f2a	-0.033965267
195	0x3c3e067c	0.011598226
196	0xbc157796	-0.00912275
197	0xbc79e6a6	-0.015252745
198	0xbafb2fd3	-0.0019164033
199	0x3cbaa3ef	0.022783248
200	0xbd699ff7	-0.05703732
201	0xbc5c0260	-0.013428301
202	0x3e991c8c	0.29904592
203	0x3d5c946d	0.053852487
204	0x3a18437a	0.00058083946
205	0xbe52ed9b	-0.20598452
206	0xbe578f2a	-0.21050707
207	0xbe5a6a04	-0.21329504
208	0xbddc3419	-0.10752124
209	0x3d23a27e	0.039949887
210	0x3d79f0b3	0.061020564
211	0x3bbb7b57	0.0057214904
212	0xbd409b34	-0.047023013
213	0xbd516b11	-0.051127497
214	0xbb8f93fe	-0.0043816557
215	0x3d0fe831	0.035133544
216	0xbd184569	-0.03717557
217	0xbc8ceb89	-0.017202156
218	0x3c7f4cd6	0.015582284
219	0xbd908212	-0.07056059
220	0xbd9de5a7	-0.07709818
221	0xba0fe4e1	-0.00054891227
222	0xbcbf569f	-0.023356734
223	0x3bbfeebf	0.005857318
224	0xbd208bb6	-0.03919574
225	0x3d30dbbc	0.043178305
226	0x3d6c49ec	0.057687685
227	0x3d291895	0.04128321
228	0xbdb7d199	-0.089755245
229	0xbd480a70	-0.04883808
230	0xbd487fa0	-0.048949838
231	0xbbaa5c95	-0.005199025
232	0x3cec5321	0.028848233
233	0x3d2a4a9f	0.04157507
234	0x3dd5feb3	0.10448971
235	0x3ac0969a	0.001469332
236	0xbc41c984	-0.01182783
237	0xbd2e520e	-0.042558722
238	0xbd938f10	-0.072050214
239	0xbd70a708	-0.058753043
240	0x3d38888f	0.045052107
241	0xbe522ce6	-0.2052494
242	0xbd85f694	-0.06541172
243	0xbe0d7f25	-0.13818033
244	0x3c5f827c	0.01364195
245	0xbe26f085	-0.16302688
246	0xbdea99b1	-0.114550956
247	0x3c45b41c	0.012066867
248	0xbc81eee8	-0.01586099
249	0x3d9ee413	0.077583455
250	0xbca2fc26	-0.019895624
251	0xbd8fa086	-0.07013039
252	0xbc2dc5d5	-0.010606249
253	0xbcf9c704	-0.030490406
254	0x3c49ec4a	0.012324402
255	0xbe0e0b3b	-0.13871472

net.0.bias f4 [256]
0	0x3c49c7b7	0.012315682
1	0x3e03f049	0.1288463
2	0xbdb82358	-0.08991116
3	0xbde4d16f	-0.11172759
4	0x3d3533ae	0.04423874
5	0xbd9824e8	-0.07428914
6	0x3e0a19e4	0.13486439
7	0x3ddabca6	0.10680513
8	0x3d6fcdc0	0.058545828
9	0x3e12a879	0.1432208
10	0x3ea061ba	0.3132456
11	0x3d232629	0.039831314
12	0x3e15c4f3	0.14625911
13	0xbe01e2ff	-0.12684248
14	0x3e193177	0.14960276
15	0xbdbbdf37	-0.09173434
16	0x3db8d503	0.09025004
17	0xbe0d867e	-0.13820836
18	0xbd676255	-0.05649026
19	0xbdf7243b	-0.12067457
20	0x3dc4139e	0.09574054
21	0xbc1ae658	-0.009454332
22	0xbe1399e3	-0.14414172
23	0x3e3837df	0.17990063
24	0x3d02f30f	0.03197008
25	0x3e7ee192	0.24890736
26	0x3d8fbe19	0.0701868
27	0x3c5ef2bd	0.013607678
28	0x3e11ff4e	0.14257547
29	0xbe04e294	-0.12977058
30	0x3e2ae457	0.16688667
31	0xbd9a7b56	-0.07543056
32	0x3d3545fd	0.0442562
33	0xbdd8c59d	-0.10584567
34	0xbdb60e0f	-0.088894
35	0x3e4d8014	0.20068389
36	0x3c27b6a8	0.01023642
37	0xbd95d347	-0.073156886
38	0x3defce5c	0.11709282
39	0x3e85d943	0.2614232
40	0xbe4d4965	-0.20047529
41	0x3ba788e9	0.0051127565
42	0x3d36ff8c	0.044677302
43	0x3e631ece	0.2217972
44	0xbbb92aec	-0.0056508686
45	0xbcb8479c	-0.022495084
46	0xbddf1515	-0.10892693
47	0x3d82f53e	0.063944325
48	0x3da2d182	0.07950117
49	0xbafd0400	-0.001930356
50	0x3d4dc9d1	0.050241295
51	0xbd9e6daa	-0.077357605
52	0xbd283538	-0.04106638
53	0xbda7dad6	-0.081960365
54	0x3dc15970	0.09440887
55	0x3dedcb3e	0.11611031
56	0x3e198def	0.1499555
57	0xbd965dfd	-0.073421456
58	0x3c06131e	0.008183269
59	0x3d7a47fc	0.061103806
60	0x3e79d94f	0.24399303
61	0x3dea8081	0.114502914
62	0xbe0c0b85	-0.1367627
63	0xbdf41023	-0.1191714
64	0xbdc312e4	-0.095250875
65	0xbd0f151e	-0.03493225
66	0xbd40c9c2	-0.04706741
67	0x3e01d78c	0.12679881
68	0xbd74636a	-0.05966512
69	0xbda84871	-0.08216942
70	0x3bf4adf7	0.0074670273
71	0xbd3f6527	-0.046727326
72	0x3e58dbe2	0.21177629
73	0x3e7a929c	0.2446999
74	0xbe1a9b50	-0.1509831
75	0x3e4e3740	0.20138264
76	0x3dd86132	0.105654135
77	0x3dbcea0f	0.09224331
78	0xbe07bfb6	-0.13256726
79	0x3d1dad37	0.03849527
80	0x3dae5100	0.08511543
81	0x3d5c218a	0.053742923
82	0x3dec76ba	0.11546083
83	0x3d66d39d	0.056354154
84	0x3d472fa5	0.04862942
85	0xbde92292	-0.11383547
86	0xbd6c690c	-0.057717368
87	0xbd935d94	-0.07195583
88	0xbe1c12d1	-0.15241553
89	0x3e44ffc1	0.19238187
90	0xbd818b3c	-0.06325385
91	0xbda9d4c8	-0.08292538
92	0xbdc4f5e7	-0.09617215
93	0x3e39d13b	0.18146221
94	0x3dd53086	0.10409646
95	0xbdbabf24	-0.091184884
96	0xbd61d903	-0.0551386
97	0x3d0d412b	0.034485977
98	0xbc8188e9	-0.015812354
99	0xbe3db166	-0.18524703
100	0xbd93f1e4	-0.07223871
101	0xbe002b44	-0.12516505
102	0x3df4f345	0.119604625
103	0x3e31509b	0.17315905
104	0x3d1f1675	0.038839776
105	0xbd94fc6a	-0.07274707
106	0xbd73c3fb	-0.059513073
107	0x3d7cf7b4	0.061759666
108	0xbcbf25d6	-0.023333471
109	0x3ca59786	0.020213854
110	0xbd4b041b	-0.049564462
111	0x3d252152	0.04031498
112	0x3d2d1939	0.042260382
113	0x3e0f90b2	0.1402004
114	0x3e38e921	0.18057682
115	0xbd31d303	-0.043414127
116	0x3d27b75e	0.040946357
117	0xbd8e530e	-0.06949435
118	0xbd8dff8a	-0.06933506
119	0x3e1827c2	0.14858916
120	0x3dab6313	0.08368506
121	0x3c15a280	0.009132981
122	0x3e196c36	0.14982685
123	0x3d21d8a5	0.03951325
124	0x3e0ce340	0.13758564
125	0x3cb5cc80	0.02219224
126	0xbcdc2282	-0.026871923
127	0xbe36087e	-0.17776677
128	0xbe35bc19	-0.17747535
129	0x3e4992f5	0.19684966
130	0x3db9e12a	0.0907615
131	0xbe0d35a3	-0.13789992
132	0x3e4e8491	0.20167758
133	0xbe2d8ea3	-0.16948943
134	0x3e1a2cf9	0.15056218
135	0x3e24a38d	0.16078015
136	0x3e42fec7	0.19042502
137	0x3e3d5658	0.18489969
138	0xbd86ecb3	-0.065881155
139	0x3c915951	0.017742785
140	0x3db8d8ba	0.09025712
141	0x3e5fc8a6	0.21853885
142	0x3e5f4e68	0.21807253
143	0x3d1d67c9	0.038429055
144	0x3e5288eb	0.20560043
145	0xbdcd3c9f	-0.10021328
146	0xbd5a4f9a	-0.05329857
147	0x3d9b40c2	0.07580711
148	0x3cb5536b	0.022134503
149	0x3e202b5d	0.15641542
150	0xbde31eb6	-0.11089842
151	0xbddadf99	-0.10687179
152	0x3de58f91	0.11209024
153	0x3db2ea3b	0.08736082
154	0xbe0e5336	-0.1389893
155	0x3e0284b7	0.12745939
156	0x3b8f21d5	0.0043680468
157	0xbc3d14a8	-0.011540569
158	0x3da114dc	0.07865307
159	0xbd9db95d	-0.07701371
160	0xbe492be2	-0.19645646
161	0xbe111ebd	-0.14171882
162	0x3e37bce3	0.17943148
163	0xbd7d3201	-0.061815266
164	0x3e7ceac7	0.24698935
165	0x3c9936d1	0.018702896
166	0x3d20339a	0.03911171
167	0x3e8aa2c3	0.27077302
168	0xbdfc3bc7	-0.12316089
169	0xbdee872b	-0.11646875
170	0x3c12eb8b	0.008967291
171	0xbdcd0eb0	-0.10012567
172	0x3d438ba3	0.04774059
173	0x3de86ed3	0.11349263
174	0x3deb0c94	0.114770085
175	0xbcfc690f	-0.030811815
176	0xbda4a884	-0.08039954
177	0xbe47043f	-0.19435214
178	0xbe2a489b	-0.1662926
179	0x3e0e3bb8	0.13889968
180	0xbcc319e0	-0.02381605
181	0x3e017998	0.1264404
182	0x3b5b9678	0.0033506434
183	0xbda0a49f	-0.07843899
184	0x3e5fc9eb	0.2185437
185	0x3cc53b71	0.024076195
186	0xbd7d463e	-0.061834566
187	0x3e4c762d	0.19966955
188	0x3e3a2ba6	0.18180713
189	0x3e34a85f	0.17642353
190	0x3e2f5386	0.17121705
191	0xbdd1bbb5	-0.102408804
192	0x3dc00e8e	0.09377776
193	0x3cbc8cc0	0.023016334
194	0xbceccdbe	-0.0289067
195	0x3e037699	0.1283821
196	0xbc2c4fc3	-0.010517064
197	0x3e8221d2	0.25416428
198	0xbd29dbcc	-0.04146938
199	0x3e0bee5f	0.1366515
200	0x379327c6	1.7542287e-05
201	0xbdc5460d	-0.09632502
202	0xbd9e3cf9	-0.07726473
203	0xbdbba4f3	-0.09162321
204	0x3df24d09	0.118310995
205	0xbdde24cc	-0.10846862
206	0xbe420617	-0.18947636
207	0x3d9e74cf	0.07737123
208	0xbe1913db	-0.1494898
209	0xbd8aeaa9	-0.06783039
210	0xbd0dbf8f	-0.034606513
211	0x3dcc8a39	0.099873014
212	0x3e6ce343	0.23133568
213	0x3db51d28	0.08843452
214	0xbcfd5178	-0.030922636
215	0x3e49458e	0.1965544
216	0x3e733cd2	0.2375367
217	0xbd5db38e	-0.054126315
218	0x3dc1c631	0.0946163
219	0x3d855df6	0.06512062
220	0xbe3d7a01	-0.18503572
221	0xbca3a306	-0.019975197
222	0xbd439f9e	-0.047759645
223	0x3dd90163	0.105959676
224	0x3e04f9ba	0.12985888
225	0xbdc296ea	-0.09501441
226	0xbc349158	-0.011020981
227	0x3d5bc640	0.053655863
228	0x3e1c00ed	0.15234728
229	0xbdaece80	-0.085354805
230	0x3db150cb	0.08657988
231	0xbc7c062d	-0.015382332
232	0xbd6e821f	-0.058229562
233	0xbcda532c	-0.026650988
234	0xbcada2ea	-0.021195848
235	0x3d4991df	0.04921138
236	0xbd0e7e64	-0.034788504
237	0x3d1f4e5a	0.03889308
238	0xbafbbb3e	-0.0019205583
239	0xbd93cabc	-0.07216403
240	0x3e1b489e	0.1516442
241	0x3db9681b	0.0905306
242	0x3d239f1b	0.039946657
243	0x3d0a8fcd	0.033828545
244	0xbe072216	-0.13196597
245	0xbd117ea7	-0.035521176
246	0x3ca41410	0.020029098
247	0x3cbde172	0.02317879
248	0x3d292bd7	0.041301575
249	0xbd0d13b0	-0.034442604
250	0xbca1dbbc	-0.019758098
251	0x3ceb2ee2	0.028708879
252	0x3e68f5b4	0.22749978
253	0x3e25935f	0.16169499
254	0xbe07f46f	-0.13276838
255	0x3bb2dbea	0.0054583447

net.2.weight f4 [256, 256]
0	0xbd43ed9e	-0.04783403
1	0xbb9e0c3e	-0.0048232367
2	0x3d310e09	0.043226276
3	0x3bf4dad0	0.0074723735
4	0x3ce316a3	0.027720755
5	0xbda77673	-0.08176889
6	0x3cfbff3b	0.030761352
7	0xbd60b427	-0.054859307
8	0x3c208379	0.0097969705
9	0xbd886f2d	-0.0666183
10	0xbce6fe21	-0.02819735
11	0xbd52a679	-0.051428292
12	0x3d68a61e	0.056799047
13	0xbc0bd578	-0.008534782
14	0x3d8e94de	0.06961988
15	0xbd07cd36	-0.03315469
16	0x3c42948c	0.011876237
17	0xbce89f8c	-0.02839639
18	0xbd330d7d	-0.043714035
19	0x3cd13ea2	0.025542561
20	0xbc3069cc	-0.010767411
21	0x3c29498b	0.010332475
22	0x3daaa9cc	0.083331674
23	0xbb2fd420	-0.0026829317
24	0x3c6dd73f	0.014516651
25	0x3cba209c	0.022720627
26	0xbc848a5f	-0.016179262
27	0xbc940ccf	-0.018072514
28	0x3d01adbe	0.031659834
29	0x3c1cff5f	0.00958237
30	0xbd775b6c	-0.06038992
31	0xbcb227ec	-0.021747552
32	0xbbf54bbc	-0.007485835
33	0x3da3e558	0.08002728
34	0x3a56f991	0.00082006404
35	0x3ced48c8	0.028965369
36	0x3c853fe8	0.016265824
37	0x3d8e3c77	0.069451265
38	0x3bcdb5ed	0.0062777908
39	0x3d179be6	0.03701391
40	0x3c2b6213	0.010460394
41	0x3d2f8c6f	0.042858537
42	0xbd37c926	-0.044869564
43	0xbd4f6be1	-0.05063999
44	0x3dcdf79a	0.10056992
45	0xbc69b68d	-0.014264715
46	0xbd659205	-0.05604746
47	0xbd5485af	-0.051885303
48	0xbd0da340	-0.034579515
49	0xbd1253e6	-0.035724543
50	0xbd6d9592	-0.05800397
51	0xbd2f8c68	-0.04285851
52	0xbd0ca374	-0.03433557
53	0xbb4d44d0	-0.0031321533
54	0xbce7e4cc	-0.028307341
55	0xbd0feeda	-0.035139896
56	0x3d3823ae	0.0449559
57	0x3d07ef18	0.033187002
58	0x3d0a1962	0.033715613
59	0x3b8856f5	0.0041607567
60	0xbd5e91c5	-0.054338235
61	0xbcfb0c6c	-0.030645572
62	0x3d848da1	0.06472326
63	0x3d949e3f	0.072567455
64	0x3d587c9e	0.05285322
65	0x3c956734	0.018237688
66	0x3d08fbf8	0.03344342
67	0xbd5d8ca2	-0.054089196
68	0xbc9ff3ac	-0.019525371
69	0xbcb26273	-0.02177546
70	0xbc9517ec	-0.018199883
71	0xbd26ca85	-0.04072048
72	0xbd457192	-0.048204012
73	0x3c7a28e0	0.015268534
74	0x3d1002ed	0.03515904
75	0x3cb7c292	0.022431646
76	0xbd8aaa53	-0.06770768
77	0xbcd297ea	-0.025707204
78	0x3d820b16	0.06349771
79	0xbcca477b	-0.024692288
80	0x3d266e6f	0.04063266
81	0x3cbc741f	0.02300459
82	0xbd346128	-0.044037968
83	0x3d42f1c8	0.04759386
84	0x3ca369ff	0.019948004
85	0xbc4304e3	-0.011903021
86	0x3dbf90cc	0.0935379
87	0x3d7e87a8	0.06214109
88	0x3d5ce15c	0.053925857
89	0xbc23b610	-0.009992138
90	0xbd5c3769	-0.05376378
91	0x3d23e724	0.040015355
92	0x3d37d1a4	0.044877663
93	0x3d936370	0.071967006
94	0xbd1653ac	-0.03670089
95	0x3ceb96de	0.028758463
96	0x3c2444fd	0.010026214
97	0xbbcab2d0	-0.006185867
98	0x3d5ff095	0.054672796
99	0x3c8eed95	0.017447272
100	0x3d4aafe3	0.049484145
101	0x3d4c59f4	0.049890473
102	0x3d82429c	0.06360361
103	0x3d87cd08	0.066309035
104	0xba59b858	-0.00083053624
105	0xbbcfc951	-0.0063411375
106	0x3d182f03	0.03715421
107	0x3b8543e3	0.0040669306
108	0x3b27f382	0.002562732
109	0x3c6f592e	0.014608664
110	0xbc5d453d	-0.013505277
111	0xbbd2af80	-0.0064296126
112	0xbc2cfe18	-0.010558628
113	0x3cf9207e	0.030411001
114	0xbd082ecd	-0.033247758
115	0x3cc4efe4	0.02404017
116	0x3d4597bd	0.048240412
117	0xbcfc7776	-0.030818682
118	0x3d47b942	0.04876066
119	0xbc5e84fd	-0.013581512
120	0xbd229ba3	-0.039699208
121	0xbdb365d3	-0.08759656
122	0xbc84ba64	-0.01620216
123	0x3d7054a9	0.05867449
124	0xbd83ced0	-0.06435931
125	0xbcaa4a4a	-0.020787377
126	0x3b37b661	0.002803229
127	0x3cc2b6b7	0.023768766
128	0x3bcb4625	0.0062034302
129	0x3d7f18e1	0.062279586
130	0x3d2e1bf7	0.042507138
131	0x3d4dfb95	0.050288755
132	0x3bc4726b	0.005995085
133	0xbd5dcd51	-0.054150883
134	0xbd084fb6	-0.033279143
135	0xbb8a5c53	-0.0042224317
136	0xbda568a0	-0.08076596
137	0x3ba79825	0.0051145726
138	0x3b4ebee1	0.0031546878
139	0x3d724ac2	0.059153326
140	0xbd0a23dd	-0.03372561
141	0xbd4e5e35	-0.05038281
142	0x3c7cbb1b	0.015425469
143	0xbb24c882	-0.0025143926
144	0x3cc01b5a	0.023450542
145	0xbd4296b4	-0.047507003
146	0x3da47e9b	0.080319606
147	0xbce3a300	-0.027787685
148	0x3c00bdb0	0.007857725
149	0xbcf9f900	-0.03051424
150	0x3c99930b	0.018746873
151	0xbc555715	-0.01302125
152	0xba14887f	-0.00056660915
153	0xbc53d79b	-0.012929822
154	0xbccd6839	-0.025074111
155	0xbd380f8f	-0.044936713
156	0xbca25c24	-0.019819327
157	0xbd4fb68c	-0.0507112
158	0x3b0b296e	0.002123441
159	0xbd7dd8f2	-0.061974473
160	0x3da442f8	0.08020586
161	0x3ca21697	0.019786162
162	0x3ca1289b	0.019672683
163	0x3cb34b10	0.021886379
164	0xb95d6bd4	-0.00021116371
165	0xbd8ba0c3	-0.06817772
166	0x3af76f51	0.0018877779
167	0x3dab0bcc	0.083518595
168	0xbd1e6237	-0.038667884
169	0x3d01f51a	0.031727888
170	0x3cd64b83	0.026159054
171	0xbd56b86d	-0.052421976
172	0x3c88e4d8	0.016710684
173	0x3dbec791	0.09315408
174	0xbd76dede	-0.060271136
175	0x3d4ab058	0.04948458
176	0xbb7ac3e1	-0.0038263726
177	0x3d1de3ac	0.038547203
178	0xbda510b2	-0.08059825
179	0x3caa18b2	0.020763729
180	0x3d138525	0.03601565
181	0x3d105bcc	0.035243794
182	0xbd8f22f0	-0.06989086
183	0x3c6ee61e	0.014581231
184	0xbc14fa03	-0.009092811
185	0x3cac0d39	0.021002399
186	0x3d153936	0.036431514
187	0x3d809b96	0.06279676
188	0x3d19270f	0.037390765
189	0xbd13fd78	-0.0361304
190	0x3d21e1a7	0.03952184
191	0xbc88d33e	-0.01670229
192	0x3d3398d9	0.04384694
193	0xbd0f1eb5	-0.034941394
194	0xbd871b4b	-0.065970026
195	0x3cfec5c6	0.031100165
196	0x3d3a3960	0.045464873
197	0x3ca6db5f	0.020368276
198	0x3d44536f	0.04793113
199	0x3d8db537	0.069193296
200	0x3c16b629	0.009198704
201	0xbd44b8e9	-0.048027907
202	0xbbcae63a	-0.006191996
203	0xbb94587b	-0.0045271493
204	0xbdac436c	-0.08411297
205	0x3caee60e	0.021349933
206	0x3d56303b	0.05229209
207	0xbc13a73b	-0.009012039
208	0xbcb1c940	-0.021702409
209	0xbd033dec	-0.032041475
210	0x3cebe470	0.02879545
211	0x3d10f7bf	0.03539252
212	0x3c06c03a	0.008224541
213	0x3c3289cb	0.01089711
214	0x3d094583	0.033513557
215	0x3d14d324	0.036334172
216	0x3d8a22ec	0.06744942
217	0x3c329849	0.010900565
218	0xbd9dd6ba	-0.077069715
219	0xbbe8ca8c	-0.0071042236
220	0xbd08f6f3	-0.033438634
221	0x3c8a4600	0.016879082
222	0x39775e86	0.00023590968
223	0x3c27fd00	0.010253191
224	0x3c54625d	0.012962905
225	0xbc2458ed	-0.010030967
226	0xbcc68952	-0.024235401
227	0x3d3694a1	0.044575337
228	0xbd0f817a	-0.035035588
229	0x3c7e0c7d	0.015505907
230	0x3cd08093	0.025451934
231	0xbc385e99	-0.011253023
232	0xbc5bf5df	-0.013425319
233	0xbc9ed210	-0.019387275
234	0xbca1efd2	-0.019767676
235	0xbd663fda	-0.056213237
236	0x3d973500	0.07383156
237	0xbd2170cc	-0.039414212
238	0xbce06c75	-0.027395466
239	0xbd1b8bf1	-0.037975255
240	0x3ca8aace	0.020589259
241	0x3c0edd3c	0.008719739
242	0xbc3482d0	-0.011017516
243	0x3c66dbbb	0.014090474
244	0xbc66cc33	-0.014086771
245	0xbcde8805	-0.027164469
246	0x3d065054	0.03279145
247	0xbc07bcc2	-0.008284749
248	0x3cc1e895	0.023670474
249	0xbd11c3eb	-0.035587233
250	0xbd854b65	-0.06508521
251	0xbc809215	-0.015694657
252	0x3ba05f90	0.0048942044
253	0x3d1aaa46	0.03776004
254	0x3c3ae651	0.011407451
255	0x3c7f96da	0.015599931

net.2.bias f4 [256]
0	0xbcff1d14	-0.031141795
1	0xbcdeada9	-0.027182417
2	0xbd1f4690	-0.038885653
3	0xbd92ff0b	-0.07177552
4	0xbd342cae	-0.043987922
5	0x3c7d3bf2	0.015456187
6	0xbd4d5db2	-0.050138183
7	0xbe9fbd64	-0.3119918
8	0x3d3bd485	0.04585697
9	0x3bb85479	0.0056253043
10	0xbd8bc8bd	-0.06825397
11	0x3d6bdb4c	0.057582185
12	0xbe6b1c34	-0.22959977
13	0xbcec86d6	-0.028872889
14	0x3d6d4603	0.057928097
15	0x3d525721	0.051352624
16	0xbd0cd566	-0.0343832
17	0xbcfac2da	-0.03061049
18	0xbc7b5611	-0.015340344
19	0x3d8a8dd8	0.06765336
20	0xbcdab22c	-0.026696287
21	0xbb09e32d	-0.0021039948
22	0xbb9243bf	-0.0044636424
23	0x3d497d10	0.049191535
24	0x3d56ee06	0.05247309
25	0xbd3f89bd	-0.046762217
26	0xbcd3919f	-0.025826273
27	0x3d2c01bb	0.041993838
28	0xbe2bef26	-0.16790447
29	0xbdd68f55	-0.10476557
30	0xbd4fbd8a	-0.050717868
31	0x3c8d4f3e	0.0172497
32	0xbc5c7339	-0.013455206
33	0xbec6a5a8	-0.3879826
34	0xbd76c5d1	-0.060247246
35	0x3c19f3d0	0.009396508
36	0xbd787daa	-0.060666718
37	0xbd5beb3b	-0.05369113
38	0xbeb4bc0c	-0.35299718
39	0xbd88cfd0	-0.06680262
40	0x3c930852	0.017948303
41	0xbdf20064	-0.11816481
42	0xbd81544a	-0.06314905
43	0x3cbb877d	0.022891754
44	0x3cb141af	0.021637766
45	0x3c962188	0.018326536
46	0xbd6c6472	-0.05771298
47	0xbca32c3b	-0.019918552
48	0x3c62e5f4	0.01384877
49	0xbd3d57ad	-0.046226192
50	0x3b5e3c44	0.0033910433
51	0xbc80c25a	-0.015717674
52	0x3b722767	0.0036949755
53	0x3cdfdb88	0.02732636
54	0x3d6abdc5	0.057309885
55	0x3d157abb	0.036493998
56	0x3d76d013	0.06025703
57	0xbca624d2	-0.02028123
58	0x3d6bfc6f	0.057613786
59	0xbd7970ed	-0.06089871
60	0xbd8a3ad7	-0.06749504
61	0xbb7732bc	-0.003771945
62	0xbd22cc48	-0.0397456
63	0xbde2dd0d	-0.11077318
64	0xbdc3e800	-0.09565735
65	0x3d700687	0.058599975
66	0xbbfe5cfc	-0.0077625494
67	0xbd713017	-0.058883753
68	0x3cf0e222	0.029404704
69	0x3c227c06	0.009917265
70	0xbe9a674c	-0.30156934
71	0xbc9a2c95	-0.018820086
72	0xba7ff7df	-0.00097644137
73	0x3d7c6892	0.061623164
74	0xbb8ccf62	-0.004297183
75	0xbd0590ae	-0.03260868
76	0xbdc4e04f	-0.09613096
77	0x3ccd80ba	0.025085796
78	0xbc87ed67	-0.016592694
79	0xbcc3fb74	-0.023923613
80	0xbd969870	-0.07353294
81	0xbd425cc4	-0.04745175
82	0xbe783e1a	-0.2424244
83	0xbc7e9313	-0.015537995
84	0x3ccd3781	0.02505088
85	0xbd4bd557	-0.049764004
86	0x3c719dca	0.0147470925
87	0x3d0ad867	0.033897784
88	0xbea05c3d	-0.31320372
89	0x3d2cb99b	0.042169195
90	0x3c9a3bc3	0.018827325
91	0x3b0c2c7d	0.0021388822
92	0xbce58eca	-0.028022189
93	0xbc5ebf41	-0.013595403
94	0x3d0477a5	0.032340664
95	0x3c60438c	0.013687979
96	0xbd15614e	-0.03646975
97	0xbc59171a	-0.013250137
98	0x3d64972d	0.055808235
99	0x3d9d73df	0.07688116
100	0x3bb0670c	0.005383378
101	0x3d87d97c	0.06633279
102	0xbd462533	-0.04837532
103	0x3d22cff2	0.039749093
104	0xbb2f9bc3	-0.0026795722
105	0xbd6d91c4	-0.05800034
106	0xbcef0f32	-0.02918205
107	0x3d5575e6	0.05211439
108	0xbd6d94a6	-0.05800309
109	0x3d8c78b2	0.06858958
110	0x3c8bc7ca	0.01706304
111	0xbd6d4f53	-0.057936978
112	0xbd337a15	-0.0438176
113	0xbba0ea57	-0.004910748
114	0x3ba98469	0.005173255
115	0xbd5ca8ea	-0.053872027
116	0xbe52eaed	-0.2059743
117	0xba88641e	-0.0010405814
118	0xbc22b5ca	-0.009931037
119	0xbda62e55	-0.08114306
120	0x3d367208	0.044542342
121	0x3ca02705	0.019549856
122	0x3d402b46	0.04691627
123	0xbcf0132e	-0.02930602
124	0x3d84ac5c	0.064781874
125	0x3c20d333	0.009815979
126	0x3d221158	0.03956732
127	0xbd122249	-0.035677228
128	0x3c041744	0.008062188
129	0xbc3c0851	-0.011476592
130	0xbeba03af	-0.36330935
131	0xbd6c5f50	-0.057708085
132	0x3d4eb9c2	0.05047012
133	0x3d23655e	0.039891593
134	0xbdc5d152	-0.09659065
135	0x3ce90b82	0.02844787
136	0xbccad284	-0.024758585
137	0x3c4abbf0	0.012373909
138	0xbec5198c	-0.38496053
139	0x3d8dbf06	0.069212005
140	0xbcc84fc5	-0.0244521
141	0xbd18c2cc	-0.037295148
142	0xbd92800c	-0.07153329
143	0xbd146db4	-0.036237434
144	0x3cca33bd	0.024682874
145	0xbe26a04b	-0.16272084
146	0x3d2bb6e6	0.041922472
147	0xbe794ed9	-0.24346484
148	0xbcccce44	-0.025000699
149	0x3c1cf03c	0.009578761
150	0x3d1ddb05	0.03853895
151	0xbde18cc1	-0.11013175
152	0xbd596d2c	-0.05308263
153	0x3cd02808	0.025409713
154	0x3ccbd892	0.024883542
155	0xbd3867a1	-0.045020703
156	0xbd734d54	-0.059399918
157	0x3cdc8dad	0.026923025
158	0xbec10782	-0.3770104
159	0x3d00d5b2	0.031453796
160	0xbe214a45	-0.15750988
161	0xbd98a5a3	-0.07453468
162	0x3cb7585e	0.022381004
163	0xbba9a4d6	-0.0051771207
164	0xbd828170	-0.063723445
165	0x3d8a5b22	0.067556635
166	0xbc0e357b	-0.008679743
167	0x3d05c330	0.03265685
168	0xbd67bb02	-0.05657483
169	0x3cd4df9c	0.025985532
170	0x3c98c774	0.018649794
171	0xbcfc1784	-0.030772932
172	0xbd879823	-0.06620815
173	0x3ca3848a	0.01996066
174	0xbd29bcbc	-0.041439757
175	0xbd567fc2	-0.052367933
176	0x3d81c12b	0.06335672
177	0xbeaea6e1	-0.34111694
178	0x3d6db0ad	0.05802982
179	0x3cd79b09	0.026319044
180	0xbe8ad800	-0.2711792
181	0x3cffb915	0.031216184
182	0xbd98ec51	-0.07466949
183	0x3b9d93a9	0.004808862
184	0x3d8ce96a	0.06880458
185	0xbceb920a	-0.02875616
186	0xbdcf7aa2	-0.10130812
187	0x3bd065da	0.006359798
188	0xbdc9a61b	-0.09846135
189	0xbc9c1bc2	-0.019056205
190	0x3d4c41d5	0.04986747
191	0x3cd92481	0.026506664
192	0xbd764fd1	-0.060134713
193	0xbd10f118	-0.035386175
194	0x3a1a5005	0.00058865576
195	0xbdbc0642	-0.09180881
196	0xbd96241a	-0.073311046
197	0x3ce97244	0.028496869
198	0x3d2c85d3	0.042119812
199	0xbd9474c4	-0.07248834
200	0x3da90bc9	0.08254201
201	0x3d3ef4b4	0.046620086
202	0xbea285ac	-0.3174261
203	0x3d0d94c7	0.034565713
204	0x3d84ff88	0.06494051
205	0x3d4f200e	0.05056768
206	0xbd516db3	-0.051130008
207	0x3cd8d21d	0.026467377
208	0xbe8b2640	-0.2717762
209	0x3c379a6d	0.011206252
210	0x3d8cd7a0	0.06877065
211	0xbd6b5af8	-0.0574598
212	0xbd94d534	-0.07267228
213	0xbe402e71	-0.18767716
214	0xbd3069cd	-0.04306965
215	0xbb90270e	-0.004399187
216	0xbcdf34a3	-0.027246779
217	0x3d087846	0.033317827
218	0x3d0a1c96	0.033718668
219	0xbd177255	-0.03697427
220	0xbea73651	-0.32658628
221	0x3d030e40	0.03199601
222	0x3a69961f	0.00089106144
223	0x3c3ab91e	0.011396674
224	0xbd672f68	-0.056441694
225	0x3d419be9	0.047267828
226	0x3d0c5c3c	0.03426765
227	0x3bd22795	0.00641341
228	0xbdc4497c	-0.095843285
229	0xbd28475c	-0.04108368
230	0xbd462453	-0.048374485
231	0x3d1f61d3	0.03891165
232	0x3cc5b733	0.024135208
233	0x3d8822b4	0.06647244
234	0xbd4e28ad	-0.05033176
235	0x3caa9f9b	0.020828059
236	0x3cac57eb	0.021038016
237	0xbc15f67b	-0.009153004
238	0xbc98e28b	-0.018662712
239	0xbca3c291	-0.019990237
240	0x3da682ce	0.08130418
241	0x3d0dcf01	0.034621242
242	0xbb800ce4	-0.0039077867
243	0xbc77ddae	-0.015128536
244	0x3d011ad8	0.03151974
245	0xbba2b9a4	-0.0049659777
246	0x3d15caaa	0.03657023
247	0x3d568e32	0.0523817
248	0x3d6c273e	0.05765461
249	0xbc963878	-0.018337473
250	0xbd8f9d58	-0.07012433
251	0xbe9f0de7	-0.31065294
252	0x3d5aee1a	0.053449728
253	0x3d199893	0.03749902
254	0xbcc1a454	-0.023637928
255	0xbd479f3d	-0.048735846

net.4.weight f4 [7, 256]
0	0x3cffe824	0.031238623
1	0xbd4cf4df	-0.050038215
2	0x3d668fdb	0.056289535
3	0xbce4244f	-0.027849345
4	0xb9ca69ec	-0.0003860736
5	0xbd752569	-0.05985013
6	0xbd133dfc	-0.035947785
7	0x3b57a442	0.0032904302
8	0x3d0c10e3	0.034195792
9	0x3c2bbc7d	0.010481951
10	0x3c2cb40f	0.010540976
11	0xbd1a8366	-0.037722968
12	0x3b7e8e16	0.0038842014
13	0xbc8dcc81	-0.01730943
14	0x3d128c3d	0.035778273
15	0xbcfae763	-0.030627912
16	0xbce1fc1a	-0.027586032
17	0x3cfe5fb1	0.031051489
18	0x3c966f05	0.018363485
19	0x3d80f555	0.06296793
20	0x3d0f72ee	0.035021715
21	0x3cd5e89b	0.026111891
22	0xbb002cbd	-0.0019557916
23	0x3d46dee6	0.048552416
24	0x3d6435aa	0.05571524
25	0xbc1fc838	-0.009752326
26	0xbc3263a0	-0.01088801
27	0x3c3fec53	0.011714059
28	0xbbbd64c6	-0.0057798354
29	0xbe25c0c1	-0.16186811
30	0x3d0c514e	0.034257226
31	0xbd844522	-0.064584985
32	0x3ca3c5a8	0.01999171
33	0xbf840085	-1.0312659
34	0xbc183959	-0.0092910165
35	0x3c85ac88	0.01631762
36	0xbbdcfbe4	-0.006743895
37	0xbb839770	-0.0040158555
38	0xbb4bb6a8	-0.0031084213
39	0xbcf96b37	-0.030446632
40	0xbc747db0	-0.014922544
41	0x3c7b4fb5	0.015338828
42	0x3d6701b3	0.056398105
43	0x3d1ec74d	0.038764287
44	0xbd1f436d	-0.03888266
45	0xbd030915	-0.031991083
46	0xbcf6adad	-0.030112112
47	0xbd37237a	-0.044711567
48	0xbd46d569	-0.048543368
49	0x3cb32f8d	0.02187326
50	0x3c804493	0.015657699
51	0xbd18804d	-0.037231732
52	0xbb7e160b	-0.0038770463
53	0x3d3f96db	0.046774726
54	0xbcc701a4	-0.024292774
55	0xbd31a1d6	-0.04336723
56	0xbaf432f9	-0.0018630914
57	0xbc02ef27	-0.007991589
58	0xbc737a54	-0.014860708
59	0x3d450c60	0.048107505
60	0x3d00537d	0.03132962
61	0x3d0b036f	0.03393882
62	0x3d2802bf	0.041018244
63	0xbc3e8a58	-0.011629663
64	0x3bd46cc2	0.0064826915
65	0x3c32fd6c	0.010924678
66	0x3d45c25b	0.048281055
67	0xbcd49d90	-0.025954038
68	0xbd4e4a29	-0.050363693
69	0x3d22ea5d	0.039774287
70	0x3b641164	0.0034800405
71	0x3c31d8b6	0.010854891
72	0x3c20b63e	0.009809075
73	0xbc4e8a29	-0.012606182
74	0x3d1be41a	0.03805933
75	0xbce7bbef	-0.028287856
76	0xbd204fe9	-0.03913871
77	0xbd3391a0	-0.04384005
78	0x3d2fe125	0.042939324
79	0xbd1078e0	-0.035271525
80	0xbc4c7f02	-0.012481453
81	0xbd2580db	-0.04040609
82	0xbbc696f8	-0.0060604773
83	0xbc8a0462	-0.016847793
84	0xbcadce05	-0.021216402
85	0xbca54d0b	-0.020178339
86	0x3c35c3a5	0.011094009
87	0x3d150356	0.036380135
88	0xbbbe0945	-0.005799445
89	0xbcc3a060	-0.023880184
90	0x3b5b2bfd	0.0033442967
91	0xbbde6a34	-0.0067875627
92	0x3ce06566	0.0273921
93	0x3c4b5cce	0.012412263
94	0xbcbcc842	-0.02304471
95	0x3b1a0bbd	0.0023505532
96	0xbc94434c	-0.018098496
97	0xbd031995	-0.03200682
98	0x3cb4699f	0.02202302
99	0xbd603d33	-0.054745864
100	0xbd0af36f	-0.033923563
101	0x3d6e63cc	0.058200642
102	0x3d68e56d	0.056859422
103	0xbd154a70	-0.036447942
104	0xbd5fe9e8	-0.05466643
105	0xbd269d99	-0.04067764
106	0x3d217cd2	0.03942568
107	0xbd89bf8e	-0.06725989
108	0xbc2e23f9	-0.010628694
109	0xbd87f524	-0.06638554
110	0x3d10d4cf	0.0353592
111	0xbcd507cf	-0.0260047
112	0x3cc0e597	0.023546977
113	0xbc35fe6d	-0.011108023
114	0x3bab600b	0.005229955
115	0x3c90365f	0.017604051
116	0x3bb0f3b4	0.0054001454
117	0xbd0f8d0a	-0.035046615
118	0x3cdccd1d	0.026953274
119	0xbd876323	-0.06610706
120	0xbc7bcb22	-0.015368255
121	0xbc605a86	-0.0136934575
122	0xbd5c8f62	-0.053847678
123	0x3cf0dc89	0.029402034
124	0xbd018e6a	-0.031629957
125	0x3d5f75c0	0.054555655
126	0xbd5d20ba	-0.05398629
127	0xbd0f2c60	-0.03495443
128	0xbd72288a	-0.059120692
129	0xbc106aa3	-0.008814487
130	0x3aac3093	0.0013137035
131	0xbd492658	-0.049108833
132	0x3d514973	0.051095437
133	0xbc0a8424	-0.008454356
134	0x3d0983cc	0.033572957
135	0x3c4282a4	0.011871967
136	0xbc86fd0d	-0.016478086
137	0xbc78d09e	-0.015186457
138	0x3b4f7223	0.0031653724
139	0xba9108c4	-0.0011065234
140	0xbcc794f9	-0.024363028
141	0x3cca9384	0.024728544
142	0x3c03021d	0.007996109
143	0xbc7ff950	-0.015623406
144	0x3d12135e	0.035663
145	0x3b1867aa	0.0023255148
146	0x3d5c842f	0.053836998
147	0xbebbedd9	-0.367049
148	0xbcc56d83	-0.02410007
149	0x3c48e19c	0.012260821
150	0x3ce39c76	0.027784567
151	0xbbc77fbc	-0.006088225
152	0xbbaea532	-0.0053297514
153	0x3d331ec0	0.043730497
154	0xbb36f141	-0.0027914795
155	0xbc32d78e	-0.01091565
156	0x3d5c5e43	0.053800832
157	0x3c898fe9	0.016792255
158	0xbb9bcaca	-0.004754399
159	0xbc73e9fc	-0.014887329
160	0x3c5284ad	0.012849015
161	0x3c41c644	0.011827055
162	0xbcfd34cf	-0.03090897
163	0xbd0e5d87	-0.034757163
164	0xbce040df	-0.027374683
165	0xbca99f1b	-0.02070575
166	0xbcab83c4	-0.020936854
167	0x3b5161cb	0.0031949158
168	0x3beffb04	0.0073236246
169	0x3c0b4f17	0.008502743
170	0xbd34a8f6	-0.044106446
171	0x3d42549f	0.047443982
172	0x3cead56a	0.028666217
173	0x3a92c92d	0.0011198871
174	0x3c378766	0.011201715
175	0xbad35f05	-0.001612634
176	0x3cc25962	0.023724262
177	0x3f660f39	0.8986698
178	0xbc912464	-0.017717548
179	0xbd363875	-0.044487435
180	0x3ec44533	0.38334045
181	0x3d36dff2	0.044647165
182	0xbc25dc6c	-0.010123353
183	0xba85b357	-0.0010200542
184	0x3c36054f	0.011109664
185	0x3ca1bdf2	0.019743893
186	0x3cc500d0	0.024048239
187	0xbc943361	-0.018090906
188	0x3cafec43	0.021474963
189	0x3d053916	0.032525145
190	0xbc456605	-0.012048249
191	0x3cae9b01	0.021314146
192	0xbb0c2f7c	-0.0021390608
193	0x3d43e93b	0.047829848
194	0x3d55d50a	0.052205123
195	0xba8e2c0b	-0.0010846866
196	0x3ba7f6d8	0.0051258616
197	0xbd702e0f	-0.058637675
198	0x3ce51b95	0.027967254
199	0x3bbb90dd	0.005724056
200	0xbd6aaa3e	-0.05729126
201	0x3d80c5c8	0.06287724
202	0xbbd11725	-0.006380933
203	0x3c5c66d7	0.013452253
204	0xbc9c94c7	-0.019113911
205	0xbd0f7ac7	-0.0350292
206	0xbc7c3658	-0.015393816
207	0xbd75ef3d	-0.06004261
208	0xbc322beb	-0.010874729
209	0xbc8b069a	-0.016970921
210	0xbd3121a1	-0.04324496
211	0xbc898221	-0.016785683
212	0xbab40dbf	-0.0013737007
213	0xbc2834a5	-0.010266458
214	0x3c2799b3	0.010229516
215	0xbd205587	-0.039144065
216	0xbb85b6eb	-0.0040806434
217	0xbcd31ca0	-0.025770485
218	0x3d3b4ddf	0.04572856
219	0xbc52ca07	-0.01286555
220	0xb9df5aa6	-0.00042601413
221	0x3d1104b9	0.035404895
222	0xbd12a97b	-0.03580616
223	0x3d46ced9	0.04853711
224	0xbd1294e9	-0.035786543
225	0x3c2cacb3	0.010539222
226	0xbcfe5389	-0.031045692
227	0x3ca7a46c	0.020464145
228	0xbcedc40c	-0.029024146
229	0x3d1a10b8	0.0376136
230	0x3c2e493c	0.010637578
231	0xbd334304	-0.043765083
232	0x3d250be8	0.040294558
233	0xbca63674	-0.020289637
234	0x3c49069f	0.012269645
235	0xbd094bb2	-0.033519454
236	0x3d55a200	0.05215645
237	0xbcc60b76	-0.024175387
238	0x3ce77c37	0.028257472
239	0xb9b1eccf	-0.00033936507
240	0xbd06b475	-0.03288694
241	0xbd2c680d	-0.042091418
242	0x3cfa478d	0.030551696
243	0x3cee3636	0.029078584
244	0x3b8a6e15	0.0042245486
245	0xbcc35e66	-0.023848724
246	0x3d47bc8f	0.048763808
247	0xbd0adb0a	-0.0339003
248	0xbccd662e	-0.025073137
249	0x3cb8bd4e	0.022551205
250	0x3e791e6e	0.24328014
251	0x3b954642	0.0045554945
252	0xbcbae202	-0.022812847
253	0x3d31c277	0.043398347
254	0x3d0b836d	0.034060884
255	0xbc29fbe1	-0.010374994

net.4.bias f4 [7]
0	0x3d2780c0	0.04089427
1	0x3d1f9314	0.038958624
2	0xbca646a2	-0.020297352
3	0x3b8f36be	0.0043705394
4	0x3acd9e47	0.0015687429
5	0xbd47b8cf	-0.04876023
6	0x3cdbc97b	0.026829472
