bc_out/bc_policy_final.pt (torch, 314072 bytes, 6 tensors)

net.0.weight f4 [256, 39]
0	0x3cb86503	0.022509104
1	0x3d34dec5	0.044157762
2	0x3bedcb8e	0.0072569316
3	0x3c089cc6	0.008338159
4	0x3b8ba41f	0.004261508
5	0xbd1768d5	-0.03696521
6	0xbd6f079d	-0.05835687
7	0x3e120b5c	0.14262146
8	0x3e81885d	0.2529935
9	0xbdf73811	-0.12071241
10	0x3e63add3	0.22234277
11	0x3d0cd140	0.034379244
12	0x3e697e30	0.22802043
13	0x3dc9ef8f	0.09860145
14	0x3c314983	0.010820749
15	0x3cf2f867	0.029659463
16	0x3d1ad34f	0.037799176
17	0x3d1e949e	0.03871595
18	0xbce85690	-0.028361589
19	0x3d1928e2	0.037392505
20	0xbdac5e1b	-0.08416387
21	0x3c3d5e30	0.011558101
22	0xbd8d1837	-0.06889384
23	0x3dfd6133	0.12372055
24	0xbd949cab	-0.072564445
25	0xbc59e3bf	-0.013298928
26	0x3d166c1d	0.0367242
27	0xbd44aeaa	-0.048018135
28	0x3d4629dd	0.048379768
29	0xbcfd2fdc	-0.03090661
30	0x3dec1bb0	0.115287185
31	0xbda813cd	-0.08206902
32	0x3cccc5ec	0.02499672
33	0xbb1ac208	-0.0023614187
34	0xbd7a45ce	-0.061101727
35	0x3d8c88c5	0.06862024
36	0xbbb5838e	-0.005539364
37	0x3d10ec0a	0.035381354
38	0xbb901c1c	-0.004397882
39	0xbdb9a965	-0.090655126
40	0x3d05864a	0.03259877
41	0xbd22c332	-0.039736934
42	0x3d5b220b	0.053499263
43	0x3e3125ca	0.17299572
44	0x3db09637	0.08622401
45	0xbd8f13a9	-0.06986172
46	0x3e034682	0.12819865
47	0x3d6b23c2	0.05740715
48	0x3df965b0	0.121775985
49	0xbd95f97b	-0.07322975
50	0xbe5d1bb4	-0.21592599
51	0xbd565627	-0.052328255
52	0xbe15802c	-0.14599675
53	0x3e114a4d	0.141885
54	0xbca25775	-0.019817093
55	0x3d1992fe	0.0374937
56	0x3c569aea	0.013098458
57	0xbbb84e58	-0.0056245737
58	0x3dcdd17a	0.1004972
59	0xbdb43841	-0.08799792
60	0xba8c6177	-0.0010710199
61	0xbd37f88a	-0.04491476
62	0x3cc26dc8	0.023733988
63	0xbd11270d	-0.035437632
64	0xbcca3b1f	-0.024686394
65	0xbd915098	-0.0709545
66	0x3d644b9c	0.05573617
67	0xbd5a6d14	-0.05332668
68	0x3d062247	0.032747533
69	0xbce8531a	-0.028359938
70	0x3e1943f0	0.14967322
71	0xbbc4fdb5	-0.0060116895
72	0x3ddc595f	0.10759234
73	0xbe12397a	-0.14279738
74	0xbd2fb557	-0.04289755
75	0xbd863125	-0.06552342
76	0xbd4a9385	-0.04945709
77	0x3cf83f84	0.030303724
78	0x3d2c3f92	0.042052813
79	0x3dc957b0	0.09831178
80	0xbd96fc0a	-0.073722914
81	0xbccd35cc	-0.025050066
82	0x3d50c847	0.05097225
83	0xbd272c96	-0.040814005
84	0x3d272690	0.04080826
85	0xbe063400	-0.13105774
86	0x3e496299	0.19666518
87	0xbe430375	-0.19044288
88	0xbe11b2fa	-0.1422843
89	0x3df4a4b5	0.11945478
90	0xbb24d287	-0.0025149898
91	0xbd3441c3	-0.044008028
92	0x3dcf88b6	0.101334974
93	0x3ce1dca8	0.027571037
94	0xbd7e8f31	-0.062148277
95	0xbc695f78	-0.014243953
96	0x3d956aa9	0.072957344
97	0xbd72f697	-0.059317198
98	0xbd7f57d3	-0.062339615
99	0xbd479fde	-0.048736446
100	0xbddc6be2	-0.107627645
101	0xbd2b9a2c	-0.041895077
102	0x3d4f220e	0.050569586
103	0xbd9a4be0	-0.07534003
104	0x3ce126c2	0.027484301
105	0xbdaff857	-0.08592289
106	0xbdec3bc1	-0.11534835
107	0xbe1b69fc	-0.15177149
108	0xbdbb0b50	-0.09133017
109	0xbdbb0c16	-0.091331646
110	0x3da76de0	0.08175254
111	0x3d10898d	0.03528743
112	0xbc23bd37	-0.009993843
113	0xbd615dee	-0.05502122
114	0xbc87ea6e	-0.016591277
115	0xbbf411c8	-0.0074484088
116	0xbaf2480c	-0.0018484606
117	0xbdcde215	-0.10052887
118	0xbc98f625	-0.018672058
119	0xbdbe97d3	-0.09306302
120	0xbb71d574	-0.003690091
121	0xbd7db17f	-0.06193685
122	0x3b44da2c	0.0030037267
123	0xbdf655fe	-0.120281205
124	0xbe03d7dd	-0.12875314
125	0xbd9c6091	-0.07635606
126	0xbdfe9bef	-0.12432086
127	0xbde1f042	-0.11032154
128	0x3e692564	0.2276817
129	0xbdc99ea9	-0.09844715
130	0x3e429966	0.1900383
131	0xbc091b27	-0.00836829
132	0xbd5646fc	-0.05231379
133	0x3df8a5d4	0.12141004
134	0x3c28b0cd	0.010296059
135	0xbbbebef8	-0.005821105
136	0xbd5ddb3a	-0.05416415
137	0xbdcb3800	-0.099227905
138	0x3d8dbb93	0.069205426
139	0x3c772da3	0.015086564
140	0x3df61673	0.120160006
141	0xbd9231c2	-0.07138397
142	0x3c65d30b	0.014027367
143	0xbd847bd7	-0.06468933
144	0xbd6207d1	-0.055183236
145	0xbd0eaf2c	-0.034835026
146	0x3da26a29	0.07930405
147	0x3dc68c6a	0.096947506
148	0x3e18f9f0	0.14939094
149	0xbda03b13	-0.078237675
150	0x3b55a5a0	0.003259994
151	0xbd99a722	-0.07502581
152	0xbd4a995f	-0.049462672
153	0xbdbfd554	-0.09366861
154	0x3d8fcf94	0.07022014
155	0xbd91c513	-0.07117667
156	0x3d26b46a	0.0406994
157	0x3ca204db	0.019777706
158	0x3d26d6b8	0.040732116
159	0xbd8a605c	-0.0675666
160	0x3cddac0a	0.027059574
161	0x3d763a8d	0.060114432
162	0x3c5aa8ff	0.013345956
163	0xbe401ae2	-0.18760255
164	0x3d87c829	0.066299744
165	0x3d70b4ae	0.05876606
166	0xbe194c81	-0.1497059
167	0x3e5847cc	0.21121138
168	0x3d85639f	0.06513142
169	0xbe34c8bf	-0.17654704
170	0xbc8dfb35	-0.017331699
171	0x3c91bd9b	0.017790606
172	0x3d5b557f	0.053548332
173	0xbd52a722	-0.05142892
174	0xbbd29f1a	-0.006427658
175	0xbcda1339	-0.026620494
176	0xbdca4390	-0.09876168
177	0x3d20e9a7	0.03928533
178	0x3dbbcf19	0.0917036
179	0xbdd85660	-0.1056335
180	0x3ba3f5f0	0.0050036833
181	0x3c5b5ae0	0.0133883655
182	0xbd1d6f89	-0.038436446
183	0xbd0da9cd	-0.034585763
184	0x3d94247a	0.0723352
185	0x3e1832de	0.14863154
186	0x3d95fdf7	0.073238306
187	0xbdb5c640	-0.08875704
188	0xbcc9d036	-0.024635416
189	0xbb38cec9	-0.0028199425
190	0xbd1d08fa	-0.03833864
191	0xbd6ad743	-0.057334196
192	0x3d832626	0.064037606
193	0x3d4d0557	0.05005392
194	0xbd1d0d30	-0.038342655
195	0x3c126de6	0.008937335
196	0xbc633b08	-0.013869055
197	0xbc40f880	-0.011777997
198	0x3b954437	0.004555251
199	0x3ccd2010	0.025039703
200	0xbd68c83f	-0.056831595
201	0xbc95b7a1	-0.018276038
202	0x3e98fae4	0.29878914
203	0x3d52df2a	0.051482357
204	0x3a944cf6	0.001131444
205	0xbe552224	-0.20813805
206	0xbe5b0c53	-0.2139142
207	0xbe5c160b	-0.21492784
208	0xbdddda3a	-0.10832639
209	0x3d2a888d	0.04163413
210	0x3d8259a5	0.063647546
211	0x3bf20f66	0.0073870895
212	0xbd3506d3	-0.04419596
213	0xbd5bcc54	-0.05366166
214	0xbb996bd5	-0.004682044
215	0x3d082248	0.03323582
216	0xbd09734d	-0.033557225
217	0xbc9dbcf6	-0.019255143
218	0x3c7ba85b	0.015359963
219	0xbd8c8cad	-0.06862769
220	0xbd9d49fd	-0.07680128
221	0x3b93b379	0.004507479
222	0xbcce556f	-0.025187222
223	0x3c252604	0.010079864
224	0xbd192ebb	-0.03739808
225	0x3d3018a4	0.04299225
226	0x3d6e35ff	0.058156963
227	0x3d29c865	0.041450877
228	0xbdb7ceb3	-0.089749716
229	0xbd51f43d	-0.051258314
230	0xbd4e1795	-0.05031546
231	0xbb84d3e7	-0.004053581
232	0x3cf56bf3	0.0299587
233	0x3d1fbedf	0.03900039
234	0x3dd42b8f	0.10359871
235	0x3aa9c8a9	0.0012953478
236	0xbc13fab7	-0.009031943
237	0xbd1a2908	-0.037636787
238	0xbd978745	-0.073988475
239	0xbd83fcc9	-0.06444699
240	0x3d4701a8	0.048585564
241	0xbe54b19a	-0.20770875
242	0xbd872870	-0.0659951
243	0xbe0de3f3	-0.13856487
244	0x3c63b84f	0.013898923
245	0xbe269456	-0.16267523
246	0xbdeaac29	-0.11458618
247	0x3c7b2467	0.015328503
248	0xbca55e0e	-0.02018645
249	0x3d9e0e75	0.07717601
250	0xbc8c3c6c	-0.017118655
251	0xbd972a23	-0.07381084
252	0xbc03e10a	-0.008049259
253	0xbce58780	-0.028018713
254	0x3ca24814	0.01980976
255	0xbe06f6ab	-0.13180034

net.0.bias f4 [256]
0	0x3c5d7091	0.013515607
1	0x3e03b088	0.1286031
2	0xbdbc39a5	-0.09190682
3	0xbde67230	-0.11252248
4	0x3d378efa	0.044814087
5	0xbd98207b	-0.0742807
6	0x3e0b4b1c	0.1360287
7	0x3dda6f25	0.106657304
8	0x3d661e23	0.056181084
9	0x3e1205a9	0.14259972
10	0x3ea1a9f2	0.3157497
11	0x3d1c94bb	0.038227778
12	0x3e173e0c	0.14769763
13	0xbe02b3df	-0.12763928
14	0x3e17642e	0.1478431
15	0xbdbcc10a	-0.09216507
16	0x3db91cb5	0.090386786
17	0xbe0efa67	-0.13962708
18	0xbd67c212	-0.056581564
19	0xbdf884f7	-0.12134736
20	0x3dc7e87b	0.09761139
21	0xbc223c7d	-0.009902117
22	0xbe160ccd	-0.1465332
23	0x3e388ae0	0.18021727
24	0x3cfc6cfe	0.03081369
25	0x3e801f00	0.2502365
26	0x3d8fa1bc	0.0701327
27	0x3c4ea441	0.012612403
28	0x3e11970d	0.14217778
29	0xbe06be21	-0.13158466
30	0x3e2af6e6	0.16695747
31	0xbd9ac8f0	-0.07557857
32	0x3d3161a1	0.043305997
33	0xbdd99cce	-0.10625611
34	0xbdb5fe4e	-0.088863954
35	0x3e4ef450	0.20210385
36	0x3c442341	0.011971296
37	0xbd9738de	-0.073838934
38	0x3df10f77	0.11770528
39	0x3e863669	0.26213387
40	0xbe4dab77	-0.2008494
41	0x3b54381e	0.0032382081
42	0x3d326600	0.043554306
43	0x3e63e0db	0.22253744
44	0xbbedc0a3	-0.00725563
45	0xbcc0245e	-0.023454841
46	0xbddce868	-0.107865155
47	0x3d83453f	0.06409692
48	0x3da3ad7a	0.079920724
49	0xbb67b8b0	-0.0035357885
50	0x3d4f6722	0.050635464
51	0xbd9cd532	-0.07657851
52	0xbd29d67a	-0.041464306
53	0xbda9fb8a	-0.082999304
54	0x3dc266f9	0.09492297
55	0x3dee6404	0.1164017
56	0x3e191271	0.14948441
57	0xbd9b74c7	-0.07590633
58	0x3c03b2de	0.008038251
59	0x3d7ee4da	0.06222997
60	0x3e7adc58	0.24498117
61	0x3de9654e	0.113962755
62	0xbe0ba6b1	-0.13637806
63	0xbdf1cdd7	-0.11806839
64	0xbdc37a88	-0.09544855
65	0xbd11829b	-0.035524946
66	0xbd420d45	-0.047375936
67	0x3e0195b8	0.1265477
68	0xbd7e4d52	-0.062085457
69	0xbda4b888	-0.08043009
70	0x3c0845c5	0.008317416
71	0xbd48be81	-0.049009804
72	0x3e594969	0.2121941
73	0x3e7c2d54	0.24626666
74	0xbe1a6b82	-0.15080073
75	0x3e4ea44b	0.2017986
76	0x3dd69af2	0.10478772
77	0x3dbeacd4	0.09310308
78	0xbe080e91	-0.13286807
79	0x3d1df051	0.03855926
80	0x3daf94eb	0.08573326
81	0x3d5813df	0.052753326
82	0x3ded4b4d	0.11586628
83	0x3d65eca8	0.056133896
84	0x3d48473b	0.048896056
85	0xbdeadcfb	-0.1146793
86	0xbd6daa0c	-0.058023497
87	0xbd9052a4	-0.070470124
88	0xbe1c6d16	-0.15275988
89	0x3e4528b0	0.19253802
90	0xbd827098	-0.06369132
91	0xbda80c01	-0.082054146
92	0xbdc77536	-0.09739153
93	0x3e3b4d52	0.18291214
94	0x3dddf436	0.10837595
95	0xbdbb6f51	-0.09152091
96	0xbd5e0093	-0.054199766
97	0x3d05c4fe	0.03265857
98	0xbc81c466	-0.01584072
99	0xbe3b4619	-0.18288459
100	0xbd94ee64	-0.07272032
101	0xbdff802e	-0.1247562
102	0x3df49b6e	0.11943708
103	0x3e3268b3	0.17422752
104	0x3d1ff378	0.03905055
105	0xbd941488	-0.072304785
106	0xbd725832	-0.05916614
107	0x3d81471e	0.06312393
108	0xbcc1a685	-0.023638973
109	0x3ca5724a	0.020196099
110	0xbd4b422e	-0.04962366
111	0x3d213885	0.03936054
112	0x3d2f6b21	0.042826775
113	0x3e0f541d	0.1399693
114	0x3e37fffa	0.17968741
115	0xbd32387d	-0.043510903
116	0x3d2b7e68	0.041868597
117	0xbd921ebf	-0.071347706
118	0xbd919ebb	-0.071103536
119	0x3e16d78b	0.1473066
120	0x3dac2591	0.08405603
121	0x3c1a7f20	0.009429723
122	0x3e18fe6f	0.14940809
123	0x3d1fadda	0.038984157
124	0x3e0deb60	0.1385932
125	0x3ca69d44	0.020338662
126	0xbcdc9b28	-0.026929453
127	0xbe367f17	-0.17821918
128	0xbe377171	-0.17914368
129	0x3e4933d7	0.19648682
130	0x3db7a143	0.08966305
131	0xbe0c39f3	-0.13693981
132	0x3e4f5aa9	0.20249428
133	0xbe315be0	-0.17320204
134	0x3e1b5844	0.1517039
135	0x3e23c7ca	0.15994182
136	0x3e43df95	0.19128259
137	0x3e3e1cd7	0.18565689
138	0xbd89d342	-0.06729747
139	0x3c923d60	0.017851532
140	0x3dbb2f29	0.091398545
141	0x3e5f68b4	0.21817285
142	0x3e5fca28	0.2185446
143	0x3d1e19d2	0.038598843
144	0x3e54c5c3	0.20778565
145	0xbdd09bc9	-0.10185964
146	0xbd659f06	-0.05605986
147	0x3d97ca1c	0.07411596
148	0x3ca93a24	0.020657606
149	0x3e1eaf48	0.15496552
150	0xbde50a66	-0.11183624
151	0xbddc9a9e	-0.107716784
152	0x3de77cf7	0.11303132
153	0x3db352a0	0.08755994
154	0xbe0ef5e2	-0.13960984
155	0x3e02c570	0.12770629
156	0x3b89d1fc	0.0042059403
157	0xbc477475	-0.012173762
158	0x3d9c65ff	0.07636642
159	0xbd9bbbd5	-0.076041855
160	0xbe4ac167	-0.1980034
161	0xbe12d082	-0.14337352
162	0x3e39b4b0	0.18135333
163	0xbd7b206a	-0.06131021
164	0x3e7ebfa9	0.248778
165	0x3c91db6a	0.01780482
166	0x3d1b106f	0.03785747
167	0x3e8b2b70	0.27181578
168	0xbe006411	-0.12538172
169	0xbdf01b33	-0.11723938
170	0x3c0a3cec	0.0084373765
171	0xbdcb70c6	-0.09933619
172	0x3d4012bc	0.046892866
173	0x3de40c06	0.11135106
174	0x3dea363a	0.11436124
175	0xbd022723	-0.031775605
176	0xbda7af68	-0.08187753
177	0xbe476343	-0.19471459
178	0xbe2c6546	-0.16835508
179	0x3e0e427e	0.13892552
180	0xbccb5c31	-0.024824234
181	0x3e01aee8	0.12664378
182	0x3b55eb13	0.0032641336
183	0xbd9f1288	-0.077672064
184	0x3e60fce6	0.21971473
185	0x3cbbf989	0.022946136
186	0xbd7fea92	-0.062479563
187	0x3e4e2502	0.20131305
188	0x3e3a28ca	0.18179622
189	0x3e3689f3	0.17826061
190	0x3e2f9bfd	0.17149349
191	0xbdd81a65	-0.10551909
192	0x3dbef283	0.09323599
193	0x3cbe929c	0.023263268
194	0xbcfc95c0	-0.030833125
195	0x3e0193ea	0.12654081
196	0xbc25f2a5	-0.010128652
197	0x3e82e3ad	0.25564328
198	0xbd2e7dd8	-0.042600483
199	0x3e0bf830	0.13668895
200	0xb79defac	-1.8827464e-05
201	0xbdc7dd69	-0.097590275
202	0xbd9f7076	-0.07785122
203	0xbdbe7bd8	-0.09300965
204	0x3df25212	0.1183206
205	0xbddd00dd	-0.1079118
206	0xbe42e340	-0.19032001
207	0x3d9f47e5	0.07777385
208	0xbe18dede	-0.14928767
209	0xbd895e50	-0.06707442
210	0xbd08ad86	-0.03336861
211	0x3dcb9cb1	0.09941996
212	0x3e6e3152	0.23261002
213	0x3db2fa60	0.087391615
214	0xbd01e4ee	-0.031712465
215	0x3e4bdfa2	0.19909528
216	0x3e74a4b1	0.2389095
217	0xbd623fd2	-0.055236645
218	0x3dc20633	0.09473839
219	0x3d824d8d	0.06362448
220	0xbe3f54aa	-0.1868464
221	0xbca0f568	-0.019648269
222	0xbd48cc10	-0.049022734
223	0x3dd90f46	0.10598616
224	0x3e0423da	0.12904301
225	0xbdc1727a	-0.09445663
226	0xbc3bd03e	-0.011463223
227	0x3d59faa0	0.05321753
228	0x3e1a2ccf	0.15056156
229	0xbdafb3ed	-0.0857924
230	0x3db3afbb	0.08773752
231	0xbc88125b	-0.016610315
232	0xbd723b1c	-0.059138402
233	0xbcddf878	-0.027096018
234	0xbcab27a1	-0.02089292
235	0x3d4d7409	0.050159488
236	0xbd14c896	-0.036324106
237	0x3d1a6e27	0.037702706
238	0xbb221c14	-0.0024735974
239	0xbd978a7a	-0.07399459
240	0x3e1bb616	0.15206179
241	0x3db728af	0.08943307
242	0x3d27e8dd	0.04099356
243	0x3d0d12f6	0.03444191
244	0xbe0686e9	-0.13137402
245	0xbd102652	-0.035192795
246	0x3cae9c54	0.021314777
247	0x3cbc8276	0.023011427
248	0x3d294c29	0.041332398
249	0xbd0c70d9	-0.034287307
250	0xbca692bb	-0.020333638
251	0x3ce151f1	0.027504893
252	0x3e69e087	0.22839557
253	0x3e26b9be	0.16281793
254	0xbe0893ae	-0.13337585
255	0x3b75427c	0.003742366

net.2.weight f4 [256, 256]
0	0xbd48dec1	-0.04904056
1	0xbbb8fb07	-0.005645159
2	0x3d2f31ac	0.04277198
3	0x3c122ce8	0.008921839
4	0x3cdd0466	0.026979636
5	0xbda79a71	-0.08183754
6	0x3d03fc8d	0.032223273
7	0xbd5e0faf	-0.054214176
8	0x3c1c676b	0.009546141
9	0xbd88cffd	-0.066802956
10	0xbceb40c8	-0.028717414
11	0xbd57b9f4	-0.052667573
12	0x3d667fed	0.056274343
13	0xbc1b7bcc	-0.009489965
14	0x3d8dc554	0.06922403
15	0xbd0247b5	-0.031806666
16	0x3c511c66	0.012763118
17	0xbcd8ddda	-0.026472975
18	0xbd30e68c	-0.043188617
19	0x3cd8cad3	0.026463902
20	0xbc301146	-0.010746306
21	0x3c29f110	0.010372415
22	0x3dace808	0.08442694
23	0xbb06dce3	-0.0020578436
24	0x3c5e5fd4	0.013572652
25	0x3cb6324f	0.022240786
26	0xbc79de6d	-0.015250784
27	0xbc8f2127	-0.017471863
28	0x3d009077	0.031387772
29	0x3c3c5437	0.011494688
30	0xbd775e31	-0.060392562
31	0xbcb0ff2e	-0.021606054
32	0xbc0fab52	-0.008768873
33	0x3da1e073	0.079041384
34	0xb9a0adfb	-0.00030647204
35	0x3ce606ea	0.028079469
36	0x3c81f04e	0.015861657
37	0x3d8f3787	0.06993013
38	0x3bcb1d10	0.006198533
39	0x3d18d473	0.037311982
40	0x3c2b5c7d	0.010459063
41	0x3d307bb1	0.04308671
42	0xbd314c24	-0.043285504
43	0xbd52ad14	-0.05143459
44	0x3dd00d19	0.10158748
45	0xbc5ea010	-0.013587967
46	0xbd5a9eec	-0.053374216
47	0xbd522cde	-0.05131232
48	0xbd0d38e6	-0.03447809
49	0xbd1919d3	-0.037378144
50	0xbd6ec31c	-0.05829154
51	0xbd31d42f	-0.043415245
52	0xbd0ede15	-0.034879763
53	0xbb9f8ec4	-0.004869314
54	0xbce1b60a	-0.027552623
55	0xbd128a2d	-0.035776306
56	0x3d38cbd3	0.045116257
57	0x3d08f581	0.033437256
58	0x3d07677e	0.033057682
59	0x3b62b638	0.0034593474
60	0xbd61bc8a	-0.055111445
61	0xbd00347a	-0.031300046
62	0x3d82d273	0.06387796
63	0x3d961163	0.07327535
64	0x3d53fe8a	0.05175642
65	0x3ca1971c	0.019725375
66	0x3d0c3224	0.034227505
67	0xbd5f1a33	-0.054468345
68	0xbca207c6	-0.019779097
69	0xbcaaf4af	-0.020868627
70	0xbc9a279b	-0.018817713
71	0xbd21ea5f	-0.039530154
72	0xbd4253c4	-0.047443166
73	0x3c7f63df	0.015587776
74	0x3d05a6d5	0.032629807
75	0x3cc04b24	0.02347333
76	0xbd8aca3c	-0.067768544
77	0xbcd5ceed	-0.026099646
78	0x3d847590	0.06467736
79	0xbcbfcb60	-0.023412406
80	0x3d1e7b43	0.03869177
81	0x3cb81502	0.022470955
82	0xbd35e210	-0.044405043
83	0x3d428023	0.047485482
84	0x3c97426f	0.018464295
85	0xbc2a10ae	-0.010379953
86	0x3dc0b570	0.094096065
87	0x3d7b5a6f	0.06136554
88	0x3d5fddbb	0.054654818
89	0xbc202346	-0.009774035
90	0xbd60183e	-0.05471062
91	0x3d26e4aa	0.040745415
92	0x3d3ce1a5	0.04611363
93	0x3d973287	0.07382684
94	0xbd128eb9	-0.035780642
95	0x3cdabffa	0.02670287
96	0x3c2ed0c3	0.01066989
97	0xbbd8daee	-0.0066178953
98	0x3d60a2ad	0.05484264
99	0x3c924a28	0.017857626
100	0x3d534070	0.051575124
101	0x3d4851eb	0.048906248
102	0x3d8460ac	0.06463751
103	0x3d85ea60	0.06538844
104	0xbade92d6	-0.0016981016
105	0xbb17eed0	-0.0023183115
106	0x3d19e73a	0.03757403
107	0x3b637293	0.0034705743
108	0x3b00f8a6	0.0019679456
109	0x3c758315	0.014984866
110	0xbc666795	-0.014062782
111	0xbbc4d696	-0.006007026
112	0xbc43befa	-0.011947388
113	0x3cecd810	0.02891162
114	0xbd0764b3	-0.03305502
115	0x3cd9477c	0.026523344
116	0x3d44bfff	0.048034664
117	0xbd0450c6	-0.032303594
118	0x3d414460	0.047184348
119	0xbc68ebe8	-0.014216401
120	0xbd2304dd	-0.03979956
121	0xbdb6f0de	-0.089326605
122	0xbc8a784e	-0.016903069
123	0x3d72b018	0.059249967
124	0xbd835076	-0.06411831
125	0xbcad8c67	-0.021185113
126	0x3b9141f9	0.0044329134
127	0x3cc34fd3	0.023841774
128	0x3bc7bfef	0.0060958783
129	0x3d79fb26	0.06103053
130	0x3d2ceb67	0.042216685
131	0x3d5066af	0.050879177
132	0x3be5c5db	0.0070121116
133	0xbd5aae7a	-0.05338905
134	0xbd0709c9	-0.032968316
135	0xbb8f89d7	-0.0043804455
136	0xbda9d200	-0.082920074
137	0x3ba192b3	0.004930818
138	0x3b94accb	0.0045372
139	0x3d717fb0	0.058959663
140	0xbd074ae9	-0.033030424
141	0xbd4a19e8	-0.049341112
142	0x3c86e33c	0.016465776
143	0xbb73c189	-0.0037194213
144	0x3cb7a3f2	0.022417042
145	0xbd3e3efc	-0.046446785
146	0x3da4a3ab	0.0803903
147	0xbcea6286	-0.028611433
148	0x3bb46f63	0.0055064424
149	0xbce81ec7	-0.028334988
150	0x3caad398	0.020852849
151	0xbc4fd8d3	-0.012685972
152	0x3993b888	0.0002817551
153	0xbc59c0c0	-0.013290584
154	0xbcd22852	-0.025653992
155	0xbd34bde1	-0.044126395
156	0xbc92655e	-0.017870601
157	0xbd462181	-0.048371796
158	0x3aa9bce2	0.0012949968
159	0xbd83360a	-0.064067915
160	0x3da2cdf3	0.07949438
161	0x3ca21388	0.019784704
162	0x3c9daddf	0.019247947
163	0x3cc15061	0.023597898
164	0xb99740df	-0.00028849297
165	0xbd8c8b1c	-0.068624705
166	0x3a865062	0.0010247345
167	0x3dacf97d	0.084460236
168	0xbd1d2aae	-0.03837078
169	0x3cf75afb	0.03019475
170	0x3cd464de	0.025927003
171	0xbd59df2d	-0.053191353
172	0x3c82b680	0.015956163
173	0x3dbc920e	0.09207545
174	0xbd72d004	-0.05928041
175	0x3d510834	0.051033214
176	0xbb3e8d57	-0.0029075944
177	0x3d19a4c6	0.037510656
178	0xbd9e65e0	-0.07734275
179	0x3ca383a9	0.019960241
180	0x3d139307	0.036028888
181	0x3d0b0da2	0.03394855
182	0xbd8f665a	-0.07001944
183	0x3c675925	0.014120375
184	0xbc122233	-0.008919287
185	0x3cb69065	0.02228565
186	0x3d0d9e36	0.03457471
187	0x3d7e56db	0.06209455
188	0x3d15d0d5	0.03657611
189	0xbd14d364	-0.03633441
190	0x3d20af38	0.0392296
191	0xbc6d7873	-0.014494049
192	0x3d33fc6d	0.043941904
193	0xbd0e68d2	-0.034767933
194	0xbd851f03	-0.06500056
195	0x3d044474	0.032291844
196	0x3d39b0e3	0.045334708
197	0x3ca06d27	0.019583298
198	0x3d4724b9	0.048619006
199	0x3d8eb639	0.0696835
200	0x3c2028e6	0.009775376
201	0xbd411755	-0.04714139
202	0xbbd0d3af	-0.006372891
203	0xbb9c9e0d	-0.0047795833
204	0xbdafb8b9	-0.08580155
205	0x3cba24d3	0.022722637
206	0x3d5256c9	0.051352296
207	0xbc193c0c	-0.009352695
208	0xbcbff187	-0.023430599
209	0xbd06c550	-0.032903016
210	0x3cf0864d	0.029360915
211	0x3d15d11b	0.03657637
212	0x3c0a310d	0.008434546
213	0x3c2341e4	0.00996444
214	0x3d0d0e4c	0.034437463
215	0x3d1912d1	0.03737146
216	0x3d8bde66	0.068295285
217	0x3c33084a	0.010927269
218	0xbd9c8733	-0.07642975
219	0xbbd229c5	-0.0064136707
220	0xbcff14f7	-0.031137927
221	0x3c880704	0.016604908
222	0x398b84a5	0.00026610974
223	0x3c21818e	0.009857548
224	0x3c5258ba	0.012838537
225	0xbc3c764c	-0.011502814
226	0xbcc355fd	-0.023844713
227	0x3d32d865	0.0436634
228	0xbd109f49	-0.035308156
229	0x3c7add18	0.015311502
230	0x3cc374bb	0.023859372
231	0xbc4f8f4a	-0.01266844
232	0xbc48e052	-0.012260513
233	0xbca9f268	-0.020745471
234	0xbca60662	-0.020266715
235	0xbd63356a	-0.05547086
236	0x3d97fe29	0.07421524
237	0xbd21fe95	-0.03954943
238	0xbcd7a325	-0.02632291
239	0xbd1eee17	-0.03880128
240	0x3ca2e0d3	0.019882595
241	0x3c1104f4	0.008851279
242	0xbc29adf1	-0.010356412
243	0x3c660f0b	0.014041672
244	0xbc77ea4e	-0.015131546
245	0xbce20eee	-0.02759501
246	0x3d092615	0.033483583
247	0xbbf269b4	-0.0073978547
248	0x3cc639f4	0.024197556
249	0xbd12fdb8	-0.035886496
250	0xbd83b816	-0.06431596
251	0xbc83fa54	-0.016110577
252	0x3ba9e9d2	0.0051853443
253	0x3d1c3edd	0.03814589
254	0x3c3255c2	0.010884704
255	0x3c8d0a7b	0.017216912

net.2.bias f4 [256]
0	0xbd008730	-0.031378925
1	0xbcdf1bb9	-0.027234899
2	0xbd21da05	-0.03951456
3	0xbd93e2f0	-0.07221019
4	0xbd32e1bb	-0.043672305
5	0x3c7a6df7	0.015285007
6	0xbd505852	-0.05086548
7	0xbea28c49	-0.31747654
8	0x3d3bd485	0.04585697
9	0x3bad0174	0.0052797142
10	0xbd8e5590	-0.069499135
11	0x3d6c0ee5	0.057631392
12	0xbe703248	-0.23456681
13	0xbcefea1a	-0.029286433
14	0x3d6d3abe	0.05791735
15	0x3d523bd0	0.051326573
16	0xbd103cc7	-0.03521421
17	0xbcff34ff	-0.0311532
18	0xbc7c1d16	-0.015387794
19	0x3d8a3b98	0.06749648
20	0xbcda00cd	-0.02661171
21	0xbb08531a	-0.0020801486
22	0xbb95af30	-0.004568003
23	0x3d4849a7	0.048898365
24	0x3d573c28	0.052547604
25	0xbd414db9	-0.047193263
26	0xbcd77a36	-0.026303392
27	0x3d2ab015	0.04167183
28	0xbe31f502	-0.1737862
29	0xbddc16a1	-0.107465036
30	0xbd50e871	-0.051002923
31	0x3c7ffa67	0.015623665
32	0xbc5d14f6	-0.013493767
33	0xbecaf0b4	-0.39636767
34	0xbd75ba40	-0.059992075
35	0x3bed8078	0.0072479807
36	0xbd79f5f3	-0.06102557
37	0xbd5a84ee	-0.053349428
38	0xbeb8aa0f	-0.36067244
39	0xbd892df4	-0.06698218
40	0x3c8f64b7	0.01750408
41	0xbdf435a8	-0.119242966
42	0xbd80580e	-0.06266795
43	0x3cbadaa2	0.02280933
44	0x3cafef5a	0.021476436
45	0x3c942fea	0.018089253
46	0xbd767bac	-0.060176536
47	0xbca8f174	-0.020622946
48	0x3c702c17	0.014658949
49	0xbd3dc4fa	-0.04633043
50	0x3b450e93	0.0030068501
51	0xbc7ceebf	-0.015437781
52	0x3b5c2be7	0.0033595504
53	0x3cdf2b39	0.02724229
54	0x3d6a80b8	0.057251662
55	0x3d162e74	0.036665395
56	0x3d76d6f5	0.060263593
57	0xbca81461	-0.02051753
58	0x3d6b3151	0.05742008
59	0xbd791764	-0.060813323
60	0xbd8b1d18	-0.067926586
61	0xbb880356	-0.0041507883
62	0xbd2735d5	-0.040822823
63	0xbded9c25	-0.11602048
64	0xbdc4d9b9	-0.0961184
65	0x3d7103a3	0.05884136
66	0xbc087a02	-0.00832987
67	0xbd713017	-0.058883753
68	0x3cf09b6b	0.029370984
69	0x3c1da011	0.009620682
70	0xbe9d0323	-0.30666456
71	0xbc9b9aa6	-0.01899464
72	0xba9cac7a	-0.0011953257
73	0x3d7b72a2	0.06138862
74	0xbb8fc726	-0.004387754
75	0xbd064511	-0.03278071
76	0xbdc593f0	-0.096473575
77	0x3ccbe57a	0.024889696
78	0xbc8c5ad4	-0.017133154
79	0xbcc2b643	-0.02376855
80	0xbd9817c1	-0.07426406
81	0xbd430da2	-0.047620423
82	0xbe7bcfae	-0.24590942
83	0xbc85a0dc	-0.016312055
84	0x3ccb2c54	0.02480141
85	0xbd4ec1c6	-0.050477766
86	0x3c6e10a6	0.0145303365
87	0x3d0ac867	0.033882525
88	0xbea38eba	-0.3194483
89	0x3d2c72f6	0.042101823
90	0x3c98f119	0.018669652
91	0x3b0fe20e	0.0021954807
92	0xbce45fd8	-0.027877733
93	0xbc60c574	-0.0137189515
94	0x3d01d088	0.03169301
95	0x3c59e388	0.013298877
96	0xbd18f593	-0.037343573
97	0xbc5a2dec	-0.013316613
98	0x3d64e77f	0.055884834
99	0x3d9d5bdf	0.07683539
100	0x3b78cdf6	0.003796456
101	0x3d87d1c8	0.066318095
102	0xbd46e4c3	-0.048558008
103	0x3d208f1d	0.039198983
104	0xbb42092a	-0.0029607513
105	0xbd6e0b90	-0.058116496
106	0xbcef2142	-0.029190663
107	0x3d54abc2	0.051921614
108	0xbd6f254f	-0.05838519
109	0x3d8c439b	0.06848832
110	0x3c88d78d	0.016704345
111	0xbd712231	-0.058870498
112	0xbd351fc8	-0.044219762
113	0xbba384f6	-0.0049902154
114	0x3ba92a3c	0.0051625054
115	0xbd5dec70	-0.054180562
116	0xbe568b65	-0.20951612
117	0xbaa42f22	-0.0012526254
118	0xbc28decb	-0.010307024
119	0xbda7fefa	-0.0820293
120	0x3d3500f6	0.04419037
121	0x3c98ca00	0.018651009
122	0x3d3ffdff	0.04687309
123	0xbced4460	-0.028963268
124	0x3d8465d6	0.06464736
125	0x3c1c9ab5	0.009558369
126	0x3d21aa13	0.039468836
127	0xbd111558	-0.035420746
128	0x3c0132fb	0.00788569
129	0xbc4944ef	-0.012284501
130	0xbebdf237	-0.37098858
131	0xbd6c5f50	-0.057708085
132	0x3d4d803c	0.050171122
133	0x3d218b82	0.039439686
134	0xbdc765a5	-0.09736184
135	0x3ce5c37d	0.028047318
136	0xbcc9dc4e	-0.024641182
137	0x3c4a8c1f	0.012362509
138	0xbec7f336	-0.39052743
139	0x3d8d59d3	0.06901898
140	0xbccbc828	-0.024875715
141	0xbd1a1887	-0.037621047
142	0xbd95906a	-0.073029354
143	0xbd14b6b6	-0.03630706
144	0x3cc89031	0.024482818
145	0xbe294d95	-0.16533501
146	0x3d2a4b78	0.04157588
147	0xbe7e7228	-0.24848235
148	0xbccc1243	-0.024911052
149	0x3c16e387	0.00920952
150	0x3d1cb40a	0.038257636
151	0xbde2b0f7	-0.110689096
152	0xbd61381e	-0.05498516
153	0x3cccc775	0.024997452
154	0x3ccb4f26	0.024818014
155	0xbd39d443	-0.045368444
156	0xbd724454	-0.059147194
157	0x3cd7abb9	0.026327
158	0xbec3bb0e	-0.3822865
159	0x3cffaf2c	0.031211458
160	0xbe238e37	-0.1597222
161	0xbd9949e9	-0.074848
162	0x3cb516b1	0.022105547
163	0xbbb695a7	-0.005572039
164	0xbd837c0d	-0.06420145
165	0x3d8a8748	0.06764084
166	0xbc14c352	-0.009079771
167	0x3cf8f4f4	0.03039024
168	0xbd684360	-0.05670488
169	0x3cd4df9c	0.025985532
170	0x3c96b9a9	0.018399077
171	0xbcf9138f	-0.030404834
172	0xbd89d9e9	-0.06731016
173	0x3ca1b78d	0.019740844
174	0xbd28c3c2	-0.041202314
175	0xbd57406d	-0.052551676
176	0x3d81f8ab	0.06346258
177	0xbeb26659	-0.3484371
178	0x3d6d50f9	0.05793855
179	0x3cce3fc3	0.025176888
180	0xbe8c18a6	-0.27362555
181	0x3cf6a10c	0.03010609
182	0xbd9dc5aa	-0.07703717
183	0x3b9ba28c	0.0047496017
184	0x3d8c7505	0.06858257
185	0xbcf32a55	-0.029683271
186	0xbdd42850	-0.103592515
187	0x3bc55afd	0.0060228095
188	0xbdcaeef0	-0.09908855
189	0xbc9a5ed8	-0.018844053
190	0x3d4d36d3	0.050101113
191	0x3cd7205c	0.026260547
192	0xbd7725a2	-0.060338624
193	0xbd0ec4fd	-0.03485583
194	0x38e0e2bf	0.00010723387
195	0xbdc3720b	-0.09543236
196	0xbd9809d9	-0.07423753
197	0x3ce86407	0.02836801
198	0x3d2bded5	0.041960556
199	0xbd95d4b8	-0.073159635
200	0x3da8e64c	0.08247051
201	0x3d3d823c	0.04626678
202	0xbea4ba07	-0.32173178
203	0x3d0ca16a	0.034333624
204	0x3d856010	0.06512463
205	0x3d4f5d4d	0.050626088
206	0xbd519a02	-0.051172264
207	0x3cd6671b	0.026172211
208	0xbe8e448f	-0.2778668
209	0x3c320d47	0.010867423
210	0x3d8c950e	0.068643674
211	0xbd6e5c44	-0.05819346
212	0xbd95afca	-0.0730892
213	0xbe432107	-0.19055568
214	0xbd342458	-0.043979973
215	0xbb945c21	-0.004527584
216	0xbd05d8e4	-0.032677546
217	0x3d0812b1	0.03322095
218	0x3d07c424	0.03314604
219	0xbd185097	-0.03718623
220	0xbeaa087c	-0.33209598
221	0x3d01edc2	0.031720884
222	0x3a42d1fe	0.0007431804
223	0x3c3545f5	0.011064042
224	0xbd686548	-0.056737214
225	0x3d405afe	0.046961777
226	0x3d0d8c65	0.03455772
227	0x3bd108ce	0.0063792234
228	0xbdc604e6	-0.09668903
229	0xbd2998b0	-0.04140538
230	0xbd46902a	-0.04847733
231	0x3d1f6925	0.038918633
232	0x3cc5703c	0.02410137
233	0x3d87ee66	0.06637268
234	0xbd4f8c7a	-0.05067108
235	0x3cabf29e	0.020989712
236	0x3cb630de	0.022240099
237	0xbc161fd5	-0.009162863
238	0xbc9e4ec9	-0.019324677
239	0xbca7492a	-0.02042063
240	0x3da5e34b	0.08099993
241	0x3d0dcf01	0.034621242
242	0xbb88050a	-0.0041509913
243	0xbc7a847d	-0.015290377
244	0x3cfff103	0.031242853
245	0xbbd19ac5	-0.006396624
246	0x3d142542	0.036168344
247	0x3d5628f9	0.05228517
248	0x3d6ad050	0.05732757
249	0xbc9fe533	-0.01951847
250	0xbd94bfe8	-0.07263166
251	0xbea124f8	-0.31473517
252	0x3d5ac93f	0.05341458
253	0x3d183026	0.037155293
254	0xbcc37c92	-0.02386311
255	0xbd50a09d	-0.050934423

net.4.weight f4 [7, 256]
0	0x3cfe8bbf	0.031072496
1	0xbd49f33c	-0.049304232
2	0x3d695ea2	0.056975015
3	0xbce24b82	-0.027623896
4	0x39850823	0.000253738
5	0xbd742fcf	-0.059615906
6	0xbd13754a	-0.036000527
7	0xba7bfbdf	-0.0009612422
8	0x3d0c10e3	0.034195792
9	0x3c29da42	0.010366978
10	0x3c293cd3	0.010329443
11	0xbd195c03	-0.037441265
12	0x3b729f0c	0.003702107
13	0xbc8b7947	-0.017025603
14	0x3d13ae5e	0.03605496
15	0xbcf939b5	-0.030423025
16	0xbcdfe4dd	-0.02733081
17	0x3cfbc6ed	0.030734504
18	0x3c9673a0	0.018365681
19	0x3d804d67	0.06264763
20	0x3d0c7656	0.03429254
21	0x3cd6ea51	0.026234778
22	0xbadf570f	-0.0017039495
23	0x3d45b041	0.048263792
24	0x3d636576	0.055516683
25	0xbc0fcba9	-0.008776584
26	0xbc2fe067	-0.010734654
27	0x3c41f434	0.011838008
28	0xbaed69a7	-0.0018113152
29	0xbe267f0f	-0.16259407
30	0x3d0bcdea	0.03413192
31	0xbd824936	-0.0636162
32	0x3ca44ec7	0.020057095
33	0xbf86d1d9	-1.053279
34	0xbc12be4a	-0.008956501
35	0x3c8232c8	0.015893355
36	0xbbe8ba7f	-0.00710231
37	0xbb5f6419	-0.0034086762
38	0xbb45e404	-0.0030195722
39	0xbcf61a99	-0.03004198
40	0xbc7a0c63	-0.015261742
41	0x3c771b01	0.015082122
42	0x3d6a28b4	0.057167724
43	0x3d1e8c70	0.03870815
44	0xbd1d156b	-0.038350504
45	0xbd0344ab	-0.03204791
46	0xbce439ab	-0.02785953
47	0xbd2fc058	-0.042908043
48	0xbd49ca95	-0.049265463
49	0x3cb302d1	0.021851929
50	0x3c6dc3c4	0.014512006
51	0xbd117ddc	-0.03552042
52	0xbb84948e	-0.0040460294
53	0x3d3fbac2	0.046808966
54	0xbcc424a2	-0.02394325
55	0xbd2ffea3	-0.04296745
56	0xbae623aa	-0.0017558236
57	0xbc003cdc	-0.00782701
58	0xbc6bc3b2	-0.014389919
59	0x3d441efd	0.047881115
60	0x3d025285	0.031816978
61	0x3d08aa56	0.03336557
62	0x3d2abe21	0.041685227
63	0xbc1cbe0c	-0.009566795
64	0x3c00b6a7	0.007856048
65	0x3c36c96f	0.011156424
66	0x3d439d56	0.04775747
67	0xbcd49d90	-0.025954038
68	0xbd4d8ef7	-0.05018517
69	0x3d22c5c5	0.03973939
70	0x3b0a88c7	0.0021138655
71	0x3c33df82	0.010978581
72	0x3c2a2400	0.01038456
73	0xbc4cd879	-0.012502783
74	0x3d1a4918	0.037667364
75	0xbd019763	-0.031638514
76	0xbd233431	-0.039844695
77	0xbd323fbd	-0.043517817
78	0x3d2ed14d	0.042680074
79	0xbd0ecbe6	-0.03486242
80	0xbc57556b	-0.013142924
81	0xbd23d0f3	-0.03999419
82	0xbb9c51c9	-0.0047704917
83	0xbc817f8c	-0.01580789
84	0xbcac5327	-0.021035744
85	0xbcb21e04	-0.021742828
86	0x3c37d291	0.011219637
87	0x3d148502	0.03625966
88	0xbbbacc1b	-0.005700601
89	0xbcc11fb0	-0.02357468
90	0x3b55686a	0.0032563456
91	0xbbdf1b9d	-0.0068087117
92	0x3ce55680	0.027995348
93	0x3c4b9c07	0.012427337
94	0xbcbc071b	-0.022952607
95	0x3b24a0f2	0.0025120345
96	0xbc96fe5e	-0.018431839
97	0xbd035c1e	-0.03207027
98	0x3cb4c2c9	0.022065537
99	0xbd5f91ea	-0.054582514
100	0xbd15d172	-0.036576696
101	0x3d6ddca2	0.05807174
102	0x3d66fcd5	0.056393463
103	0xbd0e710f	-0.03477579
104	0xbd5e454e	-0.054265313
105	0xbd26b8b6	-0.040703498
106	0x3d219afe	0.039454453
107	0xbd89a6b3	-0.067212485
108	0xbc36ad8e	-0.011149777
109	0xbd86ee46	-0.06588416
110	0x3d0f01bd	0.034913767
111	0xbccf7a8e	-0.025326993
112	0x3cbe626d	0.023240292
113	0xbc2faca2	-0.010722311
114	0x3ba769a4	0.005109029
115	0x3c8eaa70	0.017415255
116	0x3b9dac2a	0.0048117833
117	0xbd0aa6f4	-0.033850625
118	0x3cce4088	0.025177255
119	0xbd84b5d0	-0.064799905
120	0xbc7e7d75	-0.015532841
121	0xbc5e250c	-0.013558637
122	0xbd5b33b0	-0.05351609
123	0x3cf18942	0.029484395
124	0xbd01494e	-0.03156405
125	0x3d669089	0.056290183
126	0xbd5be91e	-0.053689115
127	0xbd0e2598	-0.03470382
128	0xbd70874d	-0.058722783
129	0xbc16e73c	-0.009210404
130	0xba4bbed4	-0.0007772271
131	0xbd492658	-0.049108833
132	0x3d502da2	0.05082477
133	0xbc0b0491	-0.008484975
134	0x3d03a639	0.032140944
135	0x3c49c311	0.012314574
136	0xbc89d9bd	-0.016827459
137	0xbc73a6fd	-0.014871356
138	0x3b73beeb	0.0037192653
139	0xbaad0d0e	-0.0013202743
140	0xbcc65f35	-0.02421532
141	0x3cc654aa	0.024210293
142	0x3c077976	0.008268705
143	0xbc84c7ab	-0.01620849
144	0x3d0f90da	0.03505025
145	0x3aafb791	0.0013406147
146	0x3d5aac6b	0.053387087
147	0xbec01b83	-0.3752099
148	0xbcc3ec58	-0.023916408
149	0x3c47490c	0.012163412
150	0x3ce304ff	0.027712343
151	0xbbc77147	-0.0060865018
152	0xbb8e2c16	-0.0043387515
153	0x3d30100f	0.042984065
154	0xbb09de23	-0.0021036945
155	0xbc32dbbb	-0.010916646
156	0x3d5af8fd	0.05346011
157	0x3c87dd60	0.016585052
158	0xbbecf14c	-0.0072309133
159	0xbc701744	-0.014653984
160	0x3c5a8f48	0.013339825
161	0x3c3837b4	0.011243749
162	0xbcf89f66	-0.030349445
163	0xbd0e5723	-0.03475107
164	0xbcdf976f	-0.027293889
165	0xbca64b25	-0.020299504
166	0xbcaaa780	-0.020831823
167	0x3bb79175	0.0056020566
168	0x3be3aa7b	0.006947813
169	0x3c0b4f17	0.008502743
170	0xbd34ead5	-0.044169266
171	0x3d41d02f	0.04731768
172	0x3cf024f0	0.029314488
173	0x3a95f7f1	0.001144169
174	0x3c3b9fc1	0.0114516625
175	0xbaf912f4	-0.0019002841
176	0x3cc2142e	0.023691263
177	0x3f6ce277	0.9253306
178	0xbc919a6e	-0.017773833
179	0xbd2d0892	-0.0422445
180	0x3ec1c380	0.37844467
181	0x3d3691ba	0.04457257
182	0xbc271fd5	-0.01020046
183	0xba84d264	-0.0010133502
184	0x3c3a778f	0.011381044
185	0x3ca0ad75	0.01961396
186	0x3cb10879	0.021610485
187	0xbc951fda	-0.018203665
188	0x3caad2ff	0.020852564
189	0x3d051fb3	0.032500934
190	0xbc4384c9	-0.011933514
191	0x3cac43bc	0.021028392
192	0x39331ea3	0.00017082183
193	0x3d5229b7	0.051309314
194	0x3d547775	0.051871736
195	0xbb04f2c2	-0.0020286296
196	0x3b96988b	0.0045958213
197	0xbd6f8b6e	-0.05848258
198	0x3cdf2470	0.027239054
199	0x3ba42cd5	0.005010227
200	0xbd6a8095	-0.05725153
201	0x3d807af4	0.062734514
202	0xbbfdee35	-0.0077493438
203	0x3c596145	0.01326782
204	0xbc9bf3d4	-0.019037165
205	0xbd0e673e	-0.03476643
206	0xbc7b4df1	-0.015338407
207	0xbd755ad5	-0.059901077
208	0xbc4b639c	-0.012413885
209	0xbc8b9033	-0.017036533
210	0xbd316e23	-0.043317925
211	0xbc8724f3	-0.016497111
212	0xbade293b	-0.0016949543
213	0xbc1ecc25	-0.009692227
214	0x3c34ad04	0.011027578
215	0xbd1e9dd5	-0.03872474
216	0xbb96208f	-0.004581518
217	0xbccde448	-0.025133267
218	0x3d38b2fd	0.04509257
219	0xbc52b002	-0.012859346
220	0x3ae104fb	0.0017167622
221	0x3d102316	0.03518971
222	0xbd12fcd8	-0.03588566
223	0x3d436fe9	0.047714148
224	0xbd11291b	-0.03543959
225	0x3c2b2774	0.010446418
226	0xbcfb3088	-0.03066279
227	0x3ca80ed3	0.020514881
228	0xbce9d251	-0.02854267
229	0x3d197f9c	0.037475213
230	0x3c256698	0.010095261
231	0xbd32b6a6	-0.04363122
232	0x3d23a1dc	0.039949283
233	0xbca5d846	-0.020244729
234	0x3c414ede	0.011798589
235	0xbd084a5e	-0.033274047
236	0x3d57bb21	0.052668694
237	0xbcc82a50	-0.024434239
238	0x3cdea7eb	0.027179679
239	0x390ff9d4	0.00013730611
240	0xbd0689a1	-0.032846097
241	0xbd2c680d	-0.042091418
242	0x3cf3a685	0.029742489
243	0x3ce62ffd	0.028099054
244	0x3b966935	0.0045901784
245	0xbcd0c739	-0.025485622
246	0x3d464039	0.04840109
247	0xbd0acd8b	-0.033887427
248	0xbccccb7f	-0.024999378
249	0x3cabb9f8	0.0209627
250	0x3e78ed96	0.24309382
251	0x3bae2f54	0.0053157005
252	0xbcb9befd	-0.022674078
253	0x3d3158c4	0.043297544
254	0x3d0bc0d8	0.034119457
255	0xbc4649e2	-0.012102576

net.4.bias f4 [7]
0	0x3d271c57	0.04079851
1	0x3d1f5f43	0.038909208
2	0xbca61c44	-0.02027715
3	0x3b86d5d1	0.0041148444
4	0x3af02d92	0.0018324128
5	0xbd46a32a	-0.04849545
6	0x3cdab6b5	0.02669845
